quant_he_code/weights/quant_hcnn_mnist_plain_8bits.pth (torch, 65710 bytes, 3 tensors)

conv1.weight f4 [5, 1, 5, 5]
0.038138032 0.031357117 0.14519969 0.07500869 -0.06215878 -0.020319562 0.016019782 0.0133874975
0.040908992 0.0077936877 -0.24496032 0.22698516 0.04629244 0.023351574 -0.07025888 -0.05604821
0.4548396 0.020115493 -0.28656992 -0.009160953 0.14772713 0.27570224 -0.15566924 -0.3383882
0.039401874 0.11375104 -0.24900196 -0.049071882 -0.01220115 0.04385111 0.018284919 -0.07919812
0.27035862 0.08034823 -0.026992505 -0.15254927 -0.046862565 -0.0369074 -0.30318442 -0.29527286
-0.10650667 -0.20920716 -0.27889812 0.08558065 0.09052177 -0.0098562045 0.16886215 -0.044751342
0.05426248 0.24278808 -0.033350874 -0.06496828 -0.07588226 0.00061787874 -0.03827755 -0.04318222
-0.16611975 -0.23602691 -0.31393355 0.18888031 0.13467821 0.065872245 0.003444594 -0.3880492
-0.048077956 0.15482043 0.34281468 0.24536069 -0.1113944 -0.12553824 -0.010039421 0.036504135
0.085846156 -0.00011120717 -0.031825896 -0.055864822 0.17409547 -0.095772244 0.11582691 -0.10993587
-0.3385301 0.070237815 0.21267873 0.16833508 0.1162527 -0.164246 0.026659526 0.20321228
0.061162766 0.10319008 -0.30477828 -0.18455401 -0.042501796 -0.06880811 -0.073355116 -0.11790001
-0.08041482 -0.07915081 -0.0849423 -0.049134765 0.04083568 0.11991152 0.026897188 -0.055476926
-0.053177543 0.015501918 -0.16553539 -0.03343471 -0.024724867 0.019194841 -0.21761744 -0.3199483
-0.023131484 0.09832063 0.16430551 -0.13707682 0.034629207 0.33100677 0.22932328 -0.022362735
0.08857265 0.28640336 0.18971576 -0.0890794 -0.097065225
00000000: a036 1c3d 5270 003d 3aaf 143e 289e 993d
00000010: 349a 7ebd 3675 a6bc eb3b 833c 3c57 5b3c
00000020: 3090 273d 3162 ff3b e1d6 7abe cc6e 683e
00000030: 249d 3d3d cd4b bf3c e3e3 8fbd cf92 65bd
00000040: bce0 e83e 3fc9 a43c 4bb9 92be d217 16bc
00000050: c845 173e d828 8d3e c267 1fbe 3841 adbe
00000060: dc63 213d 4ef6 e83d 5ffa 7ebe 99ff 48bd
00000070: 55e7 47bc 399d 333d 41ca 953c a032 a2bd
00000080: 726c 8a3e 9d8d a43d 631f ddbc e035 1cbe
00000090: f6f2 3fbd 372c 17bd fd3a 9bbe 012e 97be
000000a0: 2b20 dabd 673a 56be bccb 8ebe e844 af3d
000000b0: 7a63 b93d eb7b 21bc 33ea 2c3e 2f4d 37bd
000000c0: 5642 5e3d 709d 783e ed9a 08bd 170e 85bd
000000d0: 2968 9bbd 24f9 213a ecc8 1cbd d7df 30bd
000000e0: 4c1b 2abe 0ab1 71be e6bb a0be d769 413e
000000f0: 16e9 093e 07e8 863d b3be 613b 62ae c6be
00000100: 64ed 44bd 3f89 1e3e 6885 af3e d53f 7b3e
00000110: bf22 e4bd 198d 00be 627c 24bc 5c85 153d
00000120: 1cd0 af3d e537 e9b8 df5b 02bd 83d2 64bd
00000130: 1546 323e 3d24 c4bd a936 ed3d 0f26 e1bd
00000140: d153 adbe d8d8 8f3d 74c8 593e 0860 2c3e
00000150: e515 ee3d 1a30 28be 1465 da3c e116 503e
00000160: cf85 7a3d 5255 d33d e60b 9cbe bafb 3cbe
00000170: 5d16 2ebd 44eb 8cbd 353b 96bd 8f75 f1bd
00000180: 86b0 a4bd d219 a2bd 3bf6 adbd 8941 49bd
00000190: 5043 273d 2c94 f53d 7e57 dc3c c63b 63bd
000001a0: b2d0 59bd c2fb 7d3c 1c82 29be d6f2 08bd
000001b0: ce8b cabc 803e 9d3c 1bd7 5ebe 43d0 a3be
000001c0: 3d7e bdbc 545c c93d b43f 283e de5d 0cbe
000001d0: 5bd7 0d3d b879 a93e b9d3 6a3e 0e32 b7bc
000001e0: 9465 b53d 76a3 923e d944 423e 436f b6bd
000001f0: 22ca c6bd

conv2.weight f4 [50, 5, 5, 5]
-0.2693201 -0.29810718 -0.20198487 -0.5226898 -0.4995648 0.53718066 0.10262099 -0.34643453
-1.0003318 -0.5069072 0.53479975 0.17932004 0.55802053 -0.36492822 -0.099058695 0.54929477
0.674286 0.045691606 0.20764995 -0.03296387 0.5451115 0.6709335 0.66532373 0.3559867
0.37174326 -0.43928114 -0.17287374 -0.2874452 -1.1292255 -0.69091505 -0.5793752 0.1872152
-0.3203722 -0.8309143 -0.025783217 -0.39226297 -0.11346854 -0.3022655 0.59792227 0.39610183
0.58484817 -0.32721588 1.0553064 0.49759924 -0.08195633 0.24098061 0.38299048 0.25287092
0.46053517 0.3712316 -0.48423523 -0.015553776 -0.39941037 -0.29818678 0.26404437 -0.33753964
-0.46032274 -0.7674979 -0.0598814 0.34050763 0.13463171 -0.7334312 -0.30324975 0.004159065
0.058536544 -0.24221736 -0.6022097 -0.19966172 0.5837279 0.86498004 -0.28829294 -0.18853599
0.13893026 0.69644403 0.6138892 0.41386428 0.89683694 0.38828573 -0.22252908 -0.22744215
-0.43987754 0.30908248 0.16755426 -0.35337314 0.2553974 -0.46999824 0.29711846 -0.05696942
0.041335978 0.8573411 0.43893752 0.003980631 0.052181378 0.79733986 0.48271745 0.035058532
0.2052184 0.3726345 0.77673256 -0.039312102 0.2727272 -0.858416 -0.37690625 -0.6762516
-0.7318017 0.10142529 -0.09207473 -0.34786394 -0.19296938 -0.28348848 0.098803684 0.13725847
-0.16423693 0.39911652 -0.1928689 0.48158142 0.7583853 0.18849763 -0.25467062 0.28988996
-0.08482518 0.3956079 -0.12695393 -0.5073121 -0.002910348 -0.2933227 -0.3635459 0.124969944
0.7101933 0.10861029 -0.14423728 -0.12746415 0.48365858 -0.15085503 0.15893261 -0.4703859
0.06578482 -0.656351 -0.33009404 0.2905012 -0.3133458 -0.03974588 0.31123936 -0.56196195
0.06782786 -0.28561497 -0.23445514 0.44157267 -0.11118573 -0.4681178 0.527787 0.2874437
0.6545669 0.8254212 0.23174414 0.19166286 0.21590246 -0.49508572 0.6767668 1.2178351
-0.15244609 -0.2629293 -0.3785301 0.312879 0.6489175 -0.68140817 -0.2454425 -0.29579103
-0.41979298 -0.71674806 0.008543618 -0.72831213 -0.52126783 -0.10862299 -0.7866955 1.0153674
0.6179226 0.84980774 0.26786578 0.11162243 0.41407323 0.26569244 0.76995385 0.49111316
-0.27907705 0.29198137 0.36266232 0.55578405 -0.1476765 -0.08252076 -0.24158101 -0.06359544
-0.30066183 -0.8664127 -0.60202706 0.022310078 0.17905997 -0.15811996 -0.40185148 -0.5265536
1.0811216 0.51304996 0.14112091 0.689905 0.41956338 -0.17653203 -0.14718416 0.04459744
0.30108577 -0.19956169 0.30861259 -0.20414627 -0.4128938 0.15943481 -0.05554219 0.04584005
0.02924931 -0.3366803 -0.36946008 -0.5030391 -0.5467617 -0.645432 -0.29183674 -0.2391996
-0.3921977 0.25828087 -0.20654799 -0.17842476 0.13411517 0.27348393 -0.32595116 -0.44495854
0.21661602 0.25726292 0.7978289 -0.003204078 -0.32668835 -0.28195778 0.07624962 -0.13284653
-0.09998412 -0.7237727 0.16915484 -0.005634526 0.04966189 0.18237527 -0.5985745 -0.22849785
-0.5864671 -0.9521754 -0.65670353 -0.3666324 1.0660241 -0.20846117 -0.42394793 -0.26595727
00000000: 53e4 89be 81a1 98be 1fd5 4ebe 00cf 05bf
00000010: f5c6 ffbe ac84 093f f42a d23d de5f b1be
00000020: df0a 80bf acc4 01bf a3e8 083f ac9f 373e
00000030: 6fda 0e3f dfd7 babe 49df cabd 959e 0c3f
00000040: 029e 2c3f 1f27 3b3d 30a2 543e 1f05 07bd
00000050: 6d8c 0b3f 4cc2 2b3f a852 2a3f e443 b63e
00000060: 2255 be3e 75e9 e0be d005 31be 042c 93be
00000070: 768a 90bf cfdf 30bf ef51 14bf 57b5 3f3e
00000080: d307 a4be cdb6 54bf 5337 d3bc b1d6 c8be
00000090: 3262 e8bd 8bc2 9abe 6f11 193f dccd ca3e
000000a0: 9cb8 153f d788 a7be 4814 873f 54c5 fe3e
000000b0: b8d8 a7bd 9fc3 763e 5417 c43e 4c78 813e
000000c0: 44cb eb3e 1112 be3e aeed f7be 44d5 7ebc
000000d0: 847f ccbe f0ab 98be d330 873e ffd1 acbe
000000e0: 6caf ebbe be7a 44bf 3346 75bd 0457 ae3e
000000f0: e5dc 093e 26c2 3bbf 8d43 9bbe c448 883b
00000100: 04c4 6f3d d407 78be 6a2a 1abf 1f74 4cbe
00000110: 316f 153f 556f 5d3f 229b 93be 940f 41be
00000120: bc43 0e3e 284a 323f d827 1d3f 05e6 d33e
00000130: 1b97 653f 63cd c63e aade 63be 98e6 68be
00000140: a137 e1be 0f40 9e3e 5893 2b3e 53ed b4be
00000150: 73c3 823e 9ca3 f0be e91f 983e c458 69bd
00000160: ea4f 293d b57a 5b3f 6bbc e03e f46f 823b
00000170: 24bc 553d 771e 4c3f be26 f73e 8999 0f3d
00000180: c624 523e f3c9 be3e f2d7 463f ba05 21bd
00000190: e6a2 8b3e 27c1 5bbf dbf9 c0be d31e 2dbf
000001a0: 5b57 3bbf 10b8 cf3d ad91 bcbd 391b b2be
000001b0: c499 45be 6725 91be 9659 ca3d 7c8d 0c3e
000001c0: ba2d 28be 0059 cc3e 6d7f 45be d791 f63e
000001d0: 8a25 423f 8605 413e 3064 82be 756c 943e
000001e0: d3b8 adbd 1e8d ca3e 3600 02be 35df 01bf
000001f0: 89bb 3ebb 652e 96be b022 babe 3ef0 ff3d
00000200: 3acf 353f 126f de3d f0b2 13be f685 02be
00000210: 19a2 f73e be79 1abe 3bbf 223e 6cd6 f0be
00000220: 31ba 863d 9e06 28bf 1602 a9be 93bc 943e
00000230: dc6e a0be 93cc 22bd c45a 9f3e bddc 0fbf
00000240: 55e9 8a3d 203c 92be 0215 70be d015 e23e
00000250: 58b5 e3bd 23ad efbe 0d1d 073f d22b 933e
00000260: b291 273f ce4e 533f 564e 6d3e 4543 443e
00000270: 8915 5d3e e07b fdbe 9740 2d3f 05e2 9b3f
00000280: d41a 1cbe ab9e 86be b3ce c1be ad31 a03e
00000290: 751f 263f c470 2ebf 4755 7bbe ec71 97be
000002a0: 1bef d6be cd7c 37bf 88fa 0b3c aa72 3abf
000002b0: cf71 05bf bb75 debd e064 49bf 8ff7 813f
000002c0: 2d30 1e3f 008d 593f b425 893e 4d9a e43d
000002d0: 6801 d43e d708 883e b21b 453f 2f73 fb3e
000002e0: 30e3 8ebe 957e 953e e0ae b93e dd47 0e3f
000002f0: 8238 17be a500 a9bd 0361 77be 533e 82bd
00000300: 59f0 99be 39cd 5dbf 721e 1abf a0c3 b63c
00000310: 7f5b 373e 33ea 21be 7abf cdbe 37cc 06bf
00000320: 3162 8a3f 3e57 033f 0082 103e 9d9d 303f
00000330: 03d1 d63e d0c4 34be 72b7 16be ceab 363d
00000340: ea27 9a3e e659 4cbe 7802 9e3e b80b 51be
00000350: d166 d3be e142 233e 3580 63bd c7c2 3b3d
00000360: 409c ef3c 5c61 acbe df29 bdbe 2cc7 00bf
00000370: 93f8 0bbf 083b 25bf a06b 95be bdf0 74be
00000380: 23ce c8be 643d 843e 5181 53be fbb4 36be
00000390: 7d55 093e 1606 8c3e 12e3 a6be 9bd1 e3be
000003a0: 97d0 5d3e f7b7 833e 843e 4c3f 82fb 51bb
000003b0: b243 a7be c55c 90be c328 9c3d ec08 08be
000003c0: 79c4 ccbd 2b49 39bf ed36 2d3e d4a1 b8bb
000003d0: 446a 4b3d 95c0 3a3e 2e3c 19bf 57fb 69be
000003e0: b522 16bf c4c1 73bf b91d 28bf 3eb7 bbbe
000003f0: 7a73 883f d876 55be b40f d9be 8d2b 88be

fc1.weight f4 [10, 800]
-0.28035235 -0.06421086 0.14462821 0.6142126 0.007685941 0.66134554 0.05820995 -0.6247874
-0.23434564 -0.51745266 0.37494344 -0.6144412 -1.0518843 -0.31119528 0.6847003 0.779353
0.019605916 0.3848368 -0.09892889 0.40884772 -0.49565446 -0.46213245 0.34503368 -0.5070526
-0.83010536 -0.54600954 -0.11456461 -1.2431746 -0.6043788 0.069053225 0.33311337 -0.282425
-0.1055554 -0.40965876 -0.38333312 -0.16189161 -0.03376541 -0.27655342 -0.2781563 -1.004011
0.45302492 0.38261282 0.408718 -0.022102306 0.1775586 0.59906256 0.18397114 -1.0890319
0.11509735 -0.051988333 -0.0003349006 -0.030014846 0.4125814 -0.8885812 0.05621649 0.039429113
-1.2323048 -0.15474254 0.078939885 0.2332228 0.071587265 0.2256963 -0.37290555 0.55001146
-0.23624368 0.48176473 0.08067084 1.0165453 0.07767052 0.027143223 -0.59109765 0.005904077
0.010805804 -0.06141392 0.36041462 0.14465232 -0.2711522 0.064910784 -0.6509497 -1.1894113
0.04043906 0.014334661 0.029867662 0.34844813 0.6139496 -0.47767654 0.25174883 0.49521023
-0.22968864 -0.20826928 -0.45741886 -0.09849259 0.32206097 0.02885785 0.14741047 0.39353728
0.4862786 0.40204015 0.4290206 0.21073756 0.23656082 -0.21508242 -0.7250925 0.032268025
0.3696109 0.2728295 -0.50084436 -0.21454154 0.860836 0.536888 0.22416502 0.062182736
0.007781979 -0.073889025 -0.21181941 0.1442498 -0.17554617 0.6264111 -0.3151205 -0.090836346
0.07976865 -0.02268216 0.04255228 -0.041031983 -0.58440274 -0.063187465 -0.4775361 -0.16637568
-0.5861949 -0.36986592 -0.3318433 0.76020116 -0.26509273 -0.14979231 -0.25283396 0.76075846
0.19973138 -0.21126667 -0.17893344 0.24101177 0.40554848 0.49338397 -1.4412396 -0.971119
0.47265586 -0.38465226 -0.33593792 -0.05131246 0.17794949 -1.1526964 -0.085479535 -0.90593266
0.30884123 -0.064040996 0.010667288 -0.13956484 -0.04500081 0.03759037 0.126135 -0.4937029
-0.0014478547 -0.16781382 -0.2480732 -0.73010445 0.08436056 0.08775071 0.12921645 -0.017471293
0.07169345 -0.057340425 -0.5630654 0.42204815 0.18079405 -0.2937044 -0.8532868 -0.14152959
-0.2613715 -0.18875685 -0.35246104 -0.1994869 -0.20559542 -1.0957359 -0.74616325 -0.3604282
0.25453946 -0.5951113 -0.090616286 -0.26378807 0.28615576 0.40286136 0.42126447 0.47626373
0.031178428 -0.31592068 -0.31536555 0.11338229 0.30104038 0.2006581 0.25618985 -0.081412025
0.39174363 -0.7457636 -0.70916486 -0.38825947 -0.16107734 -0.031955574 -0.40584064 0.09338972
-0.58328086 -0.75700015 -0.0005221015 -0.33199507 -0.24212392 0.3981906 0.3705002 -0.1937172
0.0017884276 -0.4988955 0.14365399 0.375647 -0.13172424 -0.23393346 0.16344617 0.07164622
-0.32815644 -0.31007838 -0.461518 -0.18801472 -0.046628963 -0.21363078 -0.1332616 -0.2072984
0.15533856 -0.18460758 0.62842906 -0.86756575 0.030558063 0.744297 -0.9194606 -0.36204827
0.3161478 0.023336034 -0.26304868 -0.20914347 0.06887365 -0.06220637 -0.18738715 -0.13782412
1.0775933 0.051408894 -0.5873942 0.15360878 0.3410543 0.464365 0.15218526 -0.42189187
00000000: 588a 8fbe fc80 83bd 6b19 143e 093d 1d3f
00000010: 59da fb3b f14d 293f 8e6d 6e3d 11f2 1fbf
00000020: 4ef8 6fbe c777 04bf 96f8 bf3e 054c 1dbf
00000030: 25a4 86bf fd54 9fbe 8548 2f3f ae83 473f
00000040: 969c a03c 5409 c53e 3b9b cabd 7d54 d13e
00000050: 6cc6 fdbe a09c ecbe 41a8 b03e 33ce 01bf
00000060: c981 54bf 48c7 0bbf daa0 eabd 5820 9fbf
00000070: 92b8 1abf c76b 8d3d d68d aa3e 029a 90be
00000080: 6e2d d8bd cbbe d1be 3d44 c4be eac6 25be
00000090: 994d 0abd 6998 8dbe 816a 8ebe 6f83 80bf
000000a0: e2f2 e73e d4e5 c33e 7c43 d13e e50f b5bc
000000b0: ecd1 353e 2a5c 193f ee62 3c3e 6665 8bbf
000000c0: 29b8 eb3d b8f1 54bd 9995 afb9 b2e1 f5bc
000000d0: df3d d33e 0f7a 63bf 4343 663d 6c80 213d
000000e0: 2abc 9dbf d474 1ebe 3cab a13d f5d1 6e3e
000000f0: 589c 923d ee1c 673e 7aed bebe 8dcd 0c3f
00000100: dde9 71be dea9 f63e c136 a53d 281e 823f
00000110: b911 9f3d 775b de3c 2d52 17bf fd76 c13b
00000120: d40a 313c 2a8d 7bbd 4488 b83e bd1f 143e
00000130: 76d4 8abe f2ef 843d a4a4 26bf a13e 98bf
00000140: 6ea3 253d eddb 6a3c 07ad f43c cb67 b23e
00000150: cd2b 1d3f 0592 f4be 39e5 803e 328c fd3e
00000160: 8033 6bbe 8b44 55be ce32 eabe 7cb6 c9bd
00000170: 2de5 a43e 4c67 ec3c c5f2 163e b87d c93e
00000180: 82f9 f83e 35d8 cd3e 97a8 db3e 96cb 573e
00000190: 003d 723e 913e 5cbe a99f 39bf 7a2b 043d
000001a0: a43d bd3e 4fb0 8b3e 5637 00bf c7b0 5bbe
000001b0: c05f 5c3f 7e71 093f 848b 653e 53b3 7e3d
000001c0: f9ff fe3b 2153 97bd 30e7 58be 38b6 133e
000001d0: 60c2 33be 7a5c 203f 7957 a1be 6808 babd
000001e0: bf5d a33d f0cf b9bc 4d4b 2e3d 2711 28bd
000001f0: 6b9b 15bf 6e68 81bd 9d7f f4be 635e 2abe
00000200: de10 16bf 115f bdbe 5de7 a9be 8b9c 423f
00000210: 3cba 87be 2863 19be 7473 81be 11c1 423f
00000220: 6286 4c3e 4a56 58be 543a 37be cacb 763e
00000230: 0da4 cf3e d39c fc3e 8a7a b8bf 419b 78bf
00000240: f3ff f13e 24f1 c4be 0e00 acbe 042d 52bd
00000250: 6438 363e 8e8b 93bf e50f afbd 34eb 67bf
00000260: 7020 9e3e ed27 83bd d9c5 2e3c 16ea 0ebe
00000270: c552 38bd 5cf8 193d 8929 013e a0c6 fcbe
00000280: f1c5 bdba 63d7 2bbe e706 7ebe 20e8 3abf
00000290: 3bc5 ac3d a5b6 b33d 5151 043e f51f 8fbc
000002a0: 04d4 923d cbdd 6abd 0e25 10bf b216 d83e
000002b0: 1322 393e 6c60 96be 0171 5abf 22ed 10be
000002c0: 7cd2 85be 7a49 41be c675 b4be 4b46 4cbe
000002d0: 9b87 52be 1341 8cbf 8e04 3fbf 0c8a b8be
000002e0: ff52 823e 3759 18bf 0895 b9bd 3b0f 87be
000002f0: 0283 923e d843 ce3e faaf d73e d7d8 f33e
00000300: e769 ff3c 5bc0 a1be 9877 a1be f934 e83d
00000310: f721 9a3e 5179 4d3e 512b 833e 59bb a6bd
00000320: 9f92 c83e 5dea 3ebf d48b 35bf f2c9 c6be
00000330: 75f1 24be d9e3 02bd 58ca cfbe 1c43 bf3d
00000340: e551 15bf c3ca 41bf a3dd 08ba 42fb a9be
00000350: 55ef 77be a3df cb3e 34b2 bd3e cd5d 46be
00000360: ac69 ea3a 3b6f ffbe 081a 133e ce54 c03e
00000370: b8e2 06be 418c 6fbe 6f5e 273e 41bb 923d
00000380: 1f04 a8be 98c2 9ebe 164c ecbe ee86 40be
00000390: 03fe 3ebd 07c2 5abe bb75 08be 0846 54be
000003a0: 1211 1f3e c509 3dbe bae0 203f ca18 5ebf
000003b0: e754 fa3c 408a 3e3f c561 6bbf 645e b9be
000003c0: 20de a13e 362b bf3c 51ae 86be b529 56be
000003d0: a10d 8d3d 1bcc 7ebd 6be2 3fbe c421 0dbe
000003e0: 94ee 893f 2292 523d 775f 16bf 9f4b 1d3e
000003f0: ab9e ae3e 40c1 ed3e 74d6 1b3e 3602 d8be
