quant_he_code/weights/quant_hcnn_mnist_plain_4bits.pth (torch, 65740 bytes, 3 tensors)

conv1.weight f4 [5, 1, 5, 5]
000000 95 76 cf 3c 64 fa 9a 3c d3 79 cc 3d 8b bd 75 3d
       0.025325099 0.018918224 0.099841736 0.059995215
000010 5c 59 c4 bd 3a 26 c7 bc 33 d4 92 3d f4 8d 0d 3d
       -0.095873564 -0.02431022 0.0716938 0.034559205
000020 14 05 57 3d d4 27 8b bd 95 ce 58 be 7c c7 81 3e
       0.052495077 -0.06794706 -0.21172555 0.25347507
000030 e1 10 dd 3d 7e b3 b2 bd 74 3e fc bd f4 81 6c 3d
       0.10794235 -0.08725642 -0.123165995 0.05774112
000040 91 8f 88 3e 9d 5d fc 3d 22 8c 85 be 6f 85 5a bd
       0.26672032 0.12322543 -0.26083475 -0.05334991
000050 71 6e 5f 3e 5d b8 87 3e 0f fb 4f be 7d 77 86 be
       0.21819474 0.26507846 -0.20310615 -0.26263037
000060 0b a4 15 bd 09 8b e3 3d a7 df 7d be 8a a9 7f bc
       -0.036533397 0.11110503 -0.24792348 -0.015604386
000070 24 24 a5 3c 7f 36 18 3e c0 a5 94 bc 31 5c 18 3b
       0.020158835 0.14864539 -0.018145442 0.002324831
000080 b3 ff 7f 3e e5 77 60 3d c8 a7 11 be 2a e0 4d be
       0.24999885 0.05480184 -0.1422416 -0.20105043
000090 a3 8d cc bd e1 05 c7 bd 62 ab 89 be fd 4c 81 be
       -0.099879526 -0.09717918 -0.26888567 -0.2525405
0000a0 28 da 10 be d4 b9 89 be b3 b9 86 be 9c e2 e6 3d
       -0.1414572 -0.26899588 -0.26313552 0.11273691
0000b0 03 61 fa 3d 95 7d 8f bc af ee 82 3e 62 4a 4f bd
       0.12225535 -0.017515937 0.25572726 -0.050608046
0000c0 d9 c8 c3 3c a0 18 59 3e bc f6 34 3c 96 a6 dc bd
       0.023899483 0.212008 0.011045154 -0.10773961
0000d0 48 f6 57 bd e2 40 c5 bd 59 9d a0 3d c8 9d be bd
       -0.052725106 -0.09631516 0.07842512 -0.09307438
0000e0 ac 75 33 be 3f f6 8a be ce 42 8f be e4 f8 1e 3e
       -0.17525357 -0.27140996 -0.27980655 0.15524632
0000f0 fb 72 16 3e b5 a7 50 3e d3 46 58 bd d9 53 89 be
       0.14692299 0.20376475 -0.05280192 -0.26821783
000100 98 98 1c be 5f 3b 6d 3e 31 af 82 3e 7d 5c 7a 3e
       -0.15292585 0.2316718 0.25524285 0.24449344
000110 fb 9a 60 be c9 1d 0c be f3 7a 86 bd 8b 61 e5 3d
       -0.2193412 -0.13683237 -0.065664195 0.112002455
000120 5f 29 18 3e 19 a4 b6 bc c1 31 8c bd 4f be 14 be
       0.14859532 -0.022295045 -0.06845427 -0.14525722
000130 ad 3d 18 3e af 45 41 bd 36 d3 42 3e 34 83 49 be
       0.14867277 -0.047185596 0.19025883 -0.19678956
000140 23 25 8e be 0b dd d0 3c 45 6e 78 3e ce 1a 73 3e
       -0.27762708 0.025496027 0.24260814 0.23740694
000150 84 e7 09 3e bb be 53 be 58 29 db 3c b3 40 1c 3e
       0.13467222 -0.20678227 0.026753113 0.15259056
000160 d2 35 c3 3d df 8f c0 3d 11 b3 81 be f1 c0 50 be
       0.0953175 0.09402441 -0.2533193 -0.20386101
000170 63 5d e9 bd 36 46 07 be b3 85 fe bb b9 b5 2b be
       -0.11394765 -0.13210377 -0.007767403 -0.1676854
000180 75 27 ce bd db c8 f7 3b ee 2d ac bd 46 48 56 ba
       -0.100661196 0.0075617856 -0.08407198 -0.0008174222
000190 72 8c 52 3d 5b 72 fb 3d aa cc db 3c 84 78 4a bd
       0.05140347 0.12277671 0.02683099 -0.04943134
0001a0 4c 49 51 bd 0f 79 70 3d fd bc 1c be dc c9 2a be
       -0.051095292 0.0587092 -0.15306468 -0.16678566
0001b0 91 a5 03 bd 76 62 4a 3d b3 cb 85 be a1 82 87 be
       -0.03214032 0.049410306 -0.26131973 -0.2646685
0001c0 23 64 6c bd 87 8b 30 3e ae 32 47 3e fd 67 3b be
       -0.057712685 0.17240725 0.19452927 -0.18301387
0001d0 23 f0 ac 3d a6 57 88 3e bf f4 85 3e 62 30 80 bd
       0.0844424 0.2662937 0.2616329 -0.06259228
0001e0 52 c3 aa 3d 0b 05 82 3e 77 d3 83 3e a0 2a 77 bd
       0.08338036 0.25394472 0.25747272 -0.060343385
0001f0 f2 40 19 be
       -0.14966181

conv2.weight f4 [50, 5, 5, 5]
000000 9a 72 81 be a0 3d e5 be 0e b1 d4 be b8 74 1c bf
       -0.25282747 -0.4477358 -0.41541332 -0.611156
000010 ac dd 04 bf 63 c4 14 3e 67 3e 01 3e c4 1c 05 bf
       -0.51900744 0.1452804 0.12621461 -0.5199702
000020 88 98 22 bf 70 53 8c be fc 49 4a 3e d6 5f 2f be
       -0.63513994 -0.27407408 0.19754785 -0.17126402
000030 43 8a 0a 3f 6a 7a 11 3d da d8 c2 bd 47 16 0b 3f
       0.5411722 0.035517134 -0.095140174 0.5433087
000040 be 05 b8 3e c9 d0 f0 3d c9 af 1d 3e d9 e7 31 3e
       0.3594188 0.117585726 0.15399088 0.17373599
000050 56 db 0a 3f 50 ee 07 3f 3f d1 f6 3e 12 6b 8e 3e
       0.5424093 0.5309801 0.48206517 0.27816063
000060 0b ac f2 3d 81 29 69 be 8d 45 ed 3d 2c b1 35 be
       0.11849221 -0.22769739 0.115855314 -0.17743367
000070 4a 81 0a bf e2 d3 aa be 92 85 d7 be 5b 1d 88 be
       -0.5410353 -0.3336478 -0.42094094 -0.26584896
000080 45 13 32 be 15 8c e0 be 0b f6 9f 3c 45 e4 ae be
       -0.17390163 -0.43856874 0.019526502 -0.3415853
000090 55 ed 4c bd 96 41 d1 be d4 8b 13 3e 09 d6 00 3f
       -0.050031025 -0.4087035 0.14408809 0.5032659
0000a0 bd f3 c6 3e 02 ba cb be 99 b0 f8 3e cf 48 11 3f
       0.38857833 -0.3979035 0.48572233 0.5675172
0000b0 d6 63 ca 3d 76 07 08 be 8d 3b 95 3e 70 b7 88 3e
       0.098823234 -0.13284096 0.29146996 0.26702452
0000c0 96 08 96 3e a4 ce cd 3e ca d1 c0 3d aa 3a d9 bc
       0.29303426 0.40196717 0.09415014 -0.026517231
0000d0 8f 6b da be 47 5e 90 bd 81 f2 d2 3c 70 ef c6 be
       -0.42660186 -0.07049232 0.0257504 -0.3885455
0000e0 af ca 8f 3d 06 ca ac be a6 ca 0e be fe f8 e5 3e
       0.07021081 -0.33747882 -0.13944492 0.44916528
0000f0 e5 53 58 3e 82 85 10 bf f6 b0 7f be c9 b0 1e 3e
       0.21125753 -0.56453717 -0.24969849 0.15497126
000100 30 36 81 3d 69 de b1 bc 77 cb ef be e3 43 a2 bd
       0.063091636 -0.021712499 -0.4683492 -0.079231046
000110 5e 5a 12 3f 48 ad 13 3f 57 eb 91 be c5 39 23 be
       0.5716914 0.5768628 -0.28499863 -0.15940006
000120 a9 2e 69 3e f9 7b ad 3e 4e 11 d6 3e c1 bd f8 3c
       0.22771706 0.33883646 0.41810077 0.03036392
000130 74 34 ca 3e 2f 62 ad 3e ca 4c 72 bc 96 11 0e bf
       0.39493144 0.3386397 -0.014788816 -0.55495584
000140 92 e8 95 be 69 41 9b 3e 26 dc 45 3d 07 c7 4e bd
       -0.29279 0.3032334 0.048305653 -0.050482776
000150 53 a4 1b 3e b2 2d 7b be 7a 2a 44 be 5a d2 33 be
       0.15199403 -0.2452915 -0.19156829 -0.17560712
000160 74 88 f8 bc ee ae d5 3e 1c c3 03 3e bf a0 e9 3c
       -0.030338503 0.41735023 0.12867397 0.028519033
000170 50 34 78 3e da a0 f6 3e 11 fc 46 3e e6 ff 57 3e
       0.24238706 0.48169595 0.19432093 0.21093711
000180 45 9f b4 3e 1f 24 56 3e 41 08 8b 3e 12 18 fa 3c
       0.35277763 0.20912217 0.27154735 0.030529056
000190 86 06 75 bd 1e 8e d2 be 2f 03 e2 bd df d8 e7 be
       -0.059820674 -0.41124052 -0.110357635 -0.45282647
0001a0 06 51 cb be be 5c 84 3e 79 57 99 3e 32 4a 09 bf
       -0.39710253 0.25852007 0.2994955 -0.5362884
0001b0 e4 c4 a8 bd ab 4f 96 bd 07 62 9f 3d 06 6e 55 3e
       -0.08240679 -0.07339414 0.07782369 0.20842752
0001c0 6c ef 13 be bf 5c 4a 3e 77 3c 89 3e f6 9f 44 3e
       -0.14446801 0.19761942 0.26803944 0.19201645
0001d0 bb 44 21 3e c4 27 4a be a4 2b 5f be 30 f3 26 be
       0.15748875 -0.19741732 -0.21793991 -0.16303706
0001e0 78 7e 73 3e c4 5e 9d 3e 51 f3 50 3d 02 50 ad be
       0.23778713 0.30736363 0.051013295 -0.33850104
0001f0 a3 8c 05 bd 12 e8 f8 bd ab 06 5c be 49 7a d1 be
       -0.032604825 -0.12153639 -0.21486919 -0.4091361
000200 ad 3b e2 3d 32 08 2d bd 0f 9f 00 bd 8d 84 8e bd
       0.110465385 -0.042244144 -0.03140169 -0.06958876
000210 af e5 88 bb 1a 2e 25 be 08 a1 aa bd e3 f8 d1 be
       -0.004177771 -0.16130868 -0.083314955 -0.41010198
000220 98 65 11 be 06 12 4c be cc 1d 9c be 0a a8 4f 3d
       -0.14198911 -0.1992875 -0.30491483 0.050697364
000230 25 ec b3 be db 9f c0 3d e3 9b 5b 3e 53 8e 07 bf
       -0.351411 0.0940549 0.21446185 -0.52951545
000240 40 4d f0 bd da 53 b9 be d6 6a 51 3c 38 3f a1 3e
       -0.11733484 -0.36196786 0.012781819 0.31493545
000250 e9 b9 b1 bd e8 ef a8 be dd a4 da 3e 33 db a1 3e
       -0.08678038 -0.32995534 0.42703906 0.31612548
000260 d2 43 dd 3e fd 51 e8 3e 32 cd e2 3e 41 ba 41 3e
       0.43215805 0.45375052 0.44297177 0.18918706
000270 98 36 92 3e 10 90 58 bc bb 23 d8 3e 7d e0 20 3f
       0.28557277 -0.013217941 0.4221476 0.6284254
000280 00 2f ae bd da 1c 7c 3d e4 03 31 be e7 cd aa 3e
       -0.08505058 0.061550952 -0.1728664 0.33360216
000290 0e f1 d0 3e 49 fc a2 be ee 59 61 be 49 9c 4f be
       0.4080891 -0.31833103 -0.22006962 -0.20274462
0002a0 d4 42 2f be 76 c5 38 be 8b 90 a0 be 8b 3d cd be
       -0.17115337 -0.18044075 -0.31360278 -0.40086016
0002b0 67 37 b9 be d9 24 2a be 51 cd 08 bf 62 5e f3 3e
       -0.3617508 -0.16615619 -0.5343829 0.47532946
0002c0 fc 06 38 3d b1 1a 22 3f 2a 75 c5 3e a7 3e 5a be
       0.044928536 0.6332198 0.38565952 -0.21312962
0002d0 25 5e c6 3e 25 22 f8 3d 8b 37 f2 3e 1e a5 c2 3e
       0.38743702 0.121158876 0.47308 0.380166
0002e0 92 5b e0 bc de 16 c5 3e d4 4b 6a 3e ad c7 89 3e
       -0.027387414 0.3849401 0.22880489 0.26910153
0002f0 cd 8f b7 3d 56 f4 ce 3d 64 df 3a be 0b 5f cb 3d
       0.08962975 0.10105197 -0.1824928 0.099302374
000300 e4 3b 91 be d6 6b 63 be c5 bd 57 be 78 00 af bd
       -0.28366005 -0.22209105 -0.21068485 -0.08545011
000310 de 75 df 3d 3f 29 31 be a2 58 72 be 0e 71 d1 be
       0.10911153 -0.1730089 -0.23666623 -0.40906566
000320 01 9c 0c 3f 15 cc d7 3e 54 3e b6 3e e0 3d bc 3e
       0.54925543 0.4214789 0.35594428 0.36765957
000330 08 f8 18 3e 51 8e 4c 3e db 1e 4f bb b8 c8 3c 3e
       0.14938366 0.19976164 -0.0031604085 0.18435943
000340 2a 54 67 3e f0 03 bd 3d 09 e4 a3 bc bf 51 b2 be
       0.225907 0.09229267 -0.020006197 -0.34827992
000350 1a 0b 9f be 8e 83 22 3d 59 80 4d 3d 51 de a8 3d
       -0.31063157 0.03967624 0.05017123 0.082455285
000360 40 fa 2a 3d 80 78 c9 be 61 e8 07 be d3 a4 ac be
       0.041742563 -0.39349747 -0.1327224 -0.337195
000370 6e 0c ba be ca 9b d9 be 15 5d d2 be 6a 74 11 be
       -0.36337608 -0.4250167 -0.4108664 -0.14204565
000380 f4 fd d2 be 8b 39 05 3e cc 7b 33 be dd 97 01 bc
       -0.41209376 0.13010232 -0.17527694 -0.007909742
000390 54 93 5b 3e ce df 73 bc 6d 89 af bc 40 8f 02 be
       0.2144292 -0.014884902 -0.021427834 -0.12749958
0003a0 15 d3 90 3e 31 29 68 3d 41 05 1d 3f 50 0d c1 3d
       0.28286043 0.05667991 0.6133614 0.09426367
0003b0 f5 f4 7e bc cd ab f3 bd 47 8c 1d 3d 19 9f 59 3e
       -0.015561332 -0.11898003 0.038463857 0.21252097
0003c0 bf bd 43 be 17 d3 77 bd 15 79 3a 3e 03 d2 55 3d
       -0.19115351 -0.060504045 0.18210252 0.052202236
0003d0 a7 a7 cf 3d 8c ac 92 3d 20 63 d4 be d5 0a 7e be
       0.10139399 0.07161817 -0.41481876 -0.2480882
0003e0 f0 d1 c8 be df db 12 bf f4 64 02 bf 49 92 24 3d
       -0.3922267 -0.57366747 -0.5093529 0.04017857
0003f0 ed 38 22 3f f0 42 2a be cf 29 89 3c e9 8f e2 be
       0.6336811 -0.16627097 0.016743569 -0.4425042

fc1.weight f4 [10, 800]
000000 ac 53 2e be 34 8e c7 3d 49 57 03 3e 0f 17 bd 3e
       -0.17024106 0.0974392 0.12826265 0.36931655
000010 5b c4 1b be e3 ad af 3e 7b a7 3c 3e b7 55 2c bf
       -0.15211622 0.34312353 0.18423264 -0.6731829
000020 98 72 85 be f0 0f 12 bf 0d 5b 35 3e e7 cb f0 be
       -0.2606399 -0.5705557 0.17710514 -0.47030565
000030 de 0f 34 bf 2f 1e fe be 52 fb 0a 3f 84 ea 0a 3f
       -0.7033671 -0.49632403 0.54289734 0.5426409
000040 99 ed 5b 3d f8 55 aa 3e 2a ca 27 bc f1 0a a5 3d
       0.053693388 0.33268714 -0.010241071 0.080587275
000050 99 f0 91 be 1b 3e d7 be b8 09 8a 3d 86 f7 a3 be
       -0.28503874 -0.4203957 0.06740135 -0.32024783
000060 ed 5e b8 be 08 2f ab be 20 1e 03 be ef 74 13 bf
       -0.36009923 -0.3343432 -0.1280446 -0.576003
000070 fe 12 4c bd 89 55 41 3e 9a dd 82 3e 50 b8 aa 3c
       -0.0498228 0.18880285 0.25559694 0.02083984
000080 6b 34 7b 3d 46 8a c0 bd b7 b5 11 be e9 d1 2b be
       0.061329287 -0.094013736 -0.14229475 -0.16779293
000090 b2 c4 16 3d 24 d4 b6 be 33 de 86 3d af 70 18 bf
       0.036808677 -0.35708725 0.0658535 -0.5954694
0000a0 9b 96 bc 3e e3 95 84 3e ac 96 ab 3e 90 78 04 be
       0.36833653 0.25895604 0.3351339 -0.12936616
0000b0 bd 22 7d 3e e6 5a f8 3e 4b 72 b7 3d 48 ae 1f bf
       0.24720283 0.4850685 0.089573465 -0.6237531
0000c0 31 b3 95 3c 73 2e 09 be b1 88 89 bd af c0 aa bd
       0.018273922 -0.13396625 -0.06715525 -0.08337533
0000d0 56 5b 35 3e c3 8f 19 bf 4e b3 00 3d e3 00 2a 3e
       0.17710623 -0.5998499 0.031421 0.16601901
0000e0 8e 1f ba be 8a 48 ae be fc 5c 24 be 03 e1 5d 3e
       -0.363522 -0.34039718 -0.16051096 0.21667866
0000f0 c9 b7 13 3e 44 95 8a be 41 91 60 be 4b 2b dc 3c
       0.14425577 -0.27067006 -0.2193041 0.026876112
000100 63 44 06 be f3 8c 8d 3e 5c 16 72 be e2 22 11 3f
       -0.13112025 0.27646598 -0.23641342 0.5669385
000110 36 74 66 3d e9 35 0e be 56 76 0b 3d 17 d7 8c 3c
       0.05626317 -0.13887753 0.0340484 0.017192407
000120 c5 35 c3 3d e7 a1 7a 3d bf 74 10 3e 29 6e ad 3d
       0.0953174 0.06118956 0.14107035 0.08468277
000130 4e e6 fa bd f2 14 f7 3d c0 64 8a be d5 6d 0a bf
       -0.122509584 0.12064542 -0.2702999 -0.5407384
000140 55 36 2f bd ff fe a3 bd ef 36 b4 3d bd b1 cb 3e
       -0.042776424 -0.08007621 0.0879954 0.3978404
000150 78 74 99 3e 18 48 8c be a5 f5 10 bd ae d0 a0 3e
       0.2997167 -0.27398753 -0.035390515 0.3140921
000160 49 94 57 3d 51 a4 db bd 50 d9 01 bf 56 00 0a bd
       0.05263165 -0.107247 -0.5072222 -0.033691727
000170 6b 95 fd 3d 84 69 b4 3d fa 29 6a 3c da 32 a0 3e
       0.12382015 0.08809188 0.014292235 0.31288797
000180 34 f8 10 3e c7 b2 a8 3d d7 00 26 bd ff 78 b8 3d
       0.14157182 0.08237224 -0.040528145 0.09007453
000190 4a 2e 4f be 91 e3 51 be ab 18 2b bf 49 a1 18 bc
       -0.20232502 -0.20496966 -0.66834515 -0.009315797
0001a0 0f c3 b8 3e 73 16 8a 3d 2d 31 b0 be 1a a8 e0 be
       0.36086318 0.06742563 -0.34412518 -0.4387825
0001b0 16 c4 a0 3e 34 d2 b6 3e aa c2 07 3e d7 95 d0 be
       0.31399602 0.35707247 0.13257852 -0.4073932
0001c0 c0 19 fe ba 32 3f ee 3d d7 94 87 bd 8b 1e b8 bb
       -0.0019386336 0.11633147 -0.06620186 -0.0056188754
0001d0 c0 46 76 3d 97 94 44 3e ca 8a 15 be c5 d9 bb bd
       0.060126066 0.19197308 -0.14603725 -0.091723956
0001e0 2a ac 32 3e b3 75 bd bd 9a 4c df 3d e2 ed 87 3e
       0.17448488 -0.09250965 0.109032825 0.26548678
0001f0 db 68 f6 bd 72 3d fe 39 32 ed 4b be 2a 06 7c bd
       -0.12031718 0.00048492436 -0.19914702 -0.061529316
000200 d8 df 5c be 92 51 0d bf 3e 81 33 3e f0 e1 06 3f
       -0.21569765 -0.5520259 0.1752977 0.52688503
000210 25 2d 49 be 2f 85 94 3d f3 0a 93 3d 50 97 88 3d
       -0.19646128 0.07251965 0.07179823 0.066694856
000220 2d 6b c3 3d 5a c1 06 bd ac 42 fa 3b 78 23 c0 3d
       0.095419265 -0.03289924 0.0076373424 0.09381765
000230 26 9d 01 3e 44 82 3e 3e 6c 1b 1c bf 78 40 06 bf
       0.12657604 0.1860438 -0.6097934 -0.5244212
000240 33 f1 87 3d 0c 14 39 be 6f 50 c6 be 1a 0a 00 be
       0.06637802 -0.18074054 -0.3873324 -0.12503853
000250 4b 99 18 3e 26 49 34 bf 67 15 63 be c5 a5 0f bf
       0.14902227 -0.70424116 -0.22176133 -0.5611232
000260 c4 9b af 3d fd f9 73 3d 08 20 8b be 45 cf 0b 3e
       0.08574632 0.05956458 -0.27172875 0.13653286
000270 bc a3 83 bd 8e fd 2d 3e 31 e1 19 3e 45 35 ec 3c
       -0.06427714 0.16991255 0.1502731 0.028833995
000280 c5 64 e6 3d 76 e7 8d 3c f2 b8 04 be dc 57 b9 be
       0.11249689 0.017322283 -0.12961176 -0.36199844
000290 46 ba 28 3e 14 64 3b be eb 26 14 be 83 d6 ad be
       0.16477308 -0.18299896 -0.14467971 -0.33952722
0002a0 dc 65 94 3d 9f 9c be 3a 31 10 f6 be c3 24 5e 3e
       0.07245991 0.0014542526 -0.48059228 0.21693711
0002b0 a3 cf 54 3e 75 71 40 be f5 60 1c bf 18 e1 a9 be
       0.20782332 -0.1879328 -0.61085445 -0.33179545
0002c0 90 61 c5 be 27 c0 0c be 39 5f 01 3d d5 28 44 bd
       -0.38550997 -0.13745175 0.031584952 -0.047890503
0002d0 a5 1f da be 9d 3c 2f bf f6 47 d1 be e3 8b 51 3c
       -0.42602268 -0.68451864 -0.40875214 0.012789699
0002e0 4f 53 86 bd de 22 b9 be 4d 23 29 3e 86 29 bd bd
       -0.065588586 -0.36159414 0.16517372 -0.092364356
0002f0 67 ef b4 3c 62 e1 bc 3e 0a 81 8e 3e db 18 34 3d
       0.022086812 0.36890703 0.27832824 0.043969017
000300 af 48 a0 be 59 20 ed bd c8 d6 ee 3d ef 30 a3 3e
       -0.31305453 -0.115784355 0.1166206 0.3187327
000310 b9 4c 24 bd 9b 2b 1f be 76 8c 22 3d d2 a1 e3 bd
       -0.04011223 -0.15543978 0.039684735 -0.11114849
000320 c9 51 b3 bb 70 15 ed be 06 7b 27 bf fb 89 9e 3c
       -0.005472396 -0.46305418 -0.65422094 0.019352904
000330 3f 87 01 bd e2 9f f8 bd d8 f7 39 be 10 9b 03 be
       -0.03162312 -0.1213987 -0.18160951 -0.1285212
000340 4c c7 22 3e 7e 38 c4 be a3 aa 6b bd 95 b2 33 be
       0.15896338 -0.3832435 -0.05753578 -0.17548592
000350 22 ff 10 bc 9a 1e 93 3e a1 ac 8d bd a7 6a 03 be
       -0.008849891 0.28734285 -0.06917692 -0.12833653
000360 7c ce 65 3d aa b0 80 be c1 bc 95 3d 2f ff 80 3d
       0.056105122 -0.25134784 0.073113926 0.062986724
000370 cc 9b 35 be ea c4 8f bd 76 44 12 be a4 ad 5c bd
       -0.17735213 -0.0701998 -0.14283928 -0.053876534
000380 ef 40 02 3e d3 73 8a bd 5c 3d bc 3d 9b a7 ac bd
       0.12720083 -0.06760373 0.09191391 -0.08430406
000390 76 d6 4f be af b8 06 bf c8 72 4a be 95 71 45 be
       -0.20296654 -0.52625555 -0.19770348 -0.1928161
0003a0 a0 9d 6a be 8d 19 df be 2f 74 a9 be f1 6b 2b 3e
       -0.22911692 -0.4357418 -0.33096454 0.16740395
0003b0 95 5f 82 3e 31 41 1d be e5 cc 8e 3d 29 37 39 3d
       0.25463548 -0.153569 0.06972674 0.04521862
0003c0 58 71 0c 3e 1f ed 42 bd f7 42 f5 be 29 26 1a 3e
       0.13715112 -0.047589418 -0.47902653 0.1505362
0003d0 6b 24 a0 bd f8 19 c9 3d 40 ba 4c be c4 42 94 be
       -0.07819446 0.09819406 -0.19992924 -0.28957188
0003e0 cf a1 c9 3e 33 23 b7 3d c9 6e a8 be 6b 20 01 be
       0.39381263 0.089422606 -0.32897022 -0.12610023
0003f0 dd 58 1e 3d c5 db 55 3e 63 5a 8b be f8 36 26 3d
       0.038658965 0.20884617 -0.27217397 0.040579766
