quant_he_code/weights/quant_fc_2bits_fmnist_plain_2bits_weights.pth (torch, 412207 bytes, 2 tensors)

fc1.weight f4 [128, 784]
-0.0012933016 0.017168025 0.027460393 0.00168391 -0.0061191544 0.018217616 -0.02680369 -0.03726279
0.02644768 -0.02232114 -0.0377975 0.04430323 -0.026541244 0.016679926 0.02410197 0.03249127
0.012480574 -0.010346122 0.012400269 0.0052839234 0.013545133 0.020771384 -0.023211602 -0.0065552993
0.013736683 0.013452305 -0.020453572 0.008223087 -0.012025455 0.016073108 -0.03437281 -0.011920919
0.024294022 -0.043935925 -0.027497593 -0.03364445 0.007933257 0.018103998 -0.012188553 -0.0060924636
-0.012265442 -0.031720556 0.002788268 -0.026585154 0.020258673 -0.010988966 0.009205558 -0.023908475
-0.02915356 0.008562095 -0.014118728 -0.03742333 -0.007436348 0.0044563906 -0.00047097684 0.0073311743
-0.011376045 0.018380217 -0.018132469 0.0073793377 0.00103711 -0.025419049 -0.008354699 -0.021316208
-0.018425543 0.010870948 0.028245872 0.0037437256 -0.01619343 0.0053517 -0.0061761905 0.0001856227
-0.0024312185 -0.01077606 -0.012074971 -0.009889335 0.004074214 -0.03159954 0.012674408 -0.0038463373
-0.04160057 -0.02562379 0.029938793 -0.002461844 -0.0027401217 -0.022081535 0.0044355323 0.014173905
0.00019028099 -0.027785081 -0.049613684 -0.036931694 0.0070017846 -0.014018188 -0.015255872 -0.0016806973
-0.0030250996 0.019857923 0.030579096 -0.025988273 -0.0012244458 0.009696107 0.017136563 -0.010444698
-0.011543238 -0.005244006 0.0065051396 0.016816057 -0.011315881 0.0070351586 0.013635985 -0.03034576
-0.006504812 -0.012639161 0.022001883 0.010129118 -0.038201675 -0.023889277 0.0066133565 -0.032007508
0.012736145 0.026456073 0.024730043 0.036367346 -0.028381161 -0.0057144533 -0.009803641 -0.0201042
0.013503834 -0.026680471 0.024183426 -0.02750244 -0.029367605 0.0054372987 -0.029353864 0.027271317
0.03567763 0.02308914 0.028441485 0.024548948 -0.0368943 0.025398048 -0.007440336 -0.014931398
0.010852266 -0.025895977 0.015999494 0.015262818 0.028270785 0.018138433 -0.003346884 0.03290251
0.02248252 0.004276454 -0.02934237 -0.017009223 -0.021123605 -0.016347805 -0.038561597 -0.01683037
-0.02266535 0.014493789 0.0026768658 0.021795427 0.015932772 0.01669688 0.026217876 -0.007978823
0.014159956 -0.0125853075 0.00033347288 0.011211021 -0.016779391 -0.031913944 0.025195183 -0.010509489
0.039598193 0.0059781023 -0.019856397 -0.017344488 -0.0027684832 0.03592219 0.033666007 -0.0054915566
0.033558868 0.016463837 -0.034781877 -0.030617848 -0.008665586 6.331518e-05 0.029552221 -0.009113709
-0.009159287 0.034636945 -0.016288586 -0.027798206 -0.018749978 -0.014274976 -0.0011177626 -0.0035213071
0.034832805 -0.0062888674 0.017326854 0.020055188 0.022759648 0.0005143927 -0.0022412331 -0.009452602
0.021906227 0.00050581223 -0.016706249 0.020685282 0.015392875 -0.011648466 -0.006790307 0.035692442
0.015731517 -0.02403036 0.01990269 -0.012195876 0.017966911 0.037029635 -3.2076736e-05 0.034581862
0.027921468 -0.011151726 -0.01719243 -0.043301657 -0.0077928253 -0.0029442478 -0.024942253 0.02520597
0.009492152 -0.023331337 0.014785372 0.029902928 -0.018969823 0.018875767 0.022056457 -0.009751498
-0.025288329 -0.0063203555 0.016456107 0.020904282 -0.007259623 -0.020156873 0.029305661 0.015590406
0.01865166 0.051974867 0.05064894 -0.025719022 0.03584888 0.015778009 -0.015881939 0.015218729
00000000: 0084 a9ba f5a3 8c3c 9ef4 e03c a5b6 dc3a
00000010: 3083 c8bb 1c3d 953c 6993 dbbc dea0 18bd
00000020: cea8 d83c d3da b6bc 8dd1 1abd 4e77 353d
00000030: 066d d9bc 57a4 883c 7f71 c53c 9115 053d
00000040: 527b 4c3c c882 29bc 7f2a 4b3c c324 ad3b
00000050: 68ec 5d3c c028 aa3c 4226 bebc d6cd d6bb
00000060: d30f 613c 0f67 5c3c 408e a7bc 20ba 063c
00000070: 6a06 45bc c0ab 833c 81ca 0cbd f54f 43bc
00000080: 4204 c73c 28f6 33bd a242 e1bc c3ce 09bd
00000090: 7efa 013c d64e 943c 7fb2 47bc 4aa3 c7bb
000000a0: fef4 48bc 6aed 01bd 60bb 363b 1cc9 d9bc
000000b0: 84f5 a53c 100b 34bc e9d2 163c b5db c3bc
000000c0: 72d3 eebc 0848 0c3c 3d52 67bc 3549 19bd
000000d0: 9cac f3bb ea06 923b 71ed f6b9 593a f03b
000000e0: 9762 3abc 1c92 963c 8b8a 94bc 5fce f13b
000000f0: a3ef 873a 9c3b d0bc 26e2 08bc 549f aebc
00000100: 2af1 96bc 101c 323c e363 e73c 4b59 753b
00000110: 16a8 84bc 505d af3b a461 cabb b7a3 4239
00000120: 1455 1fbb 128e 30bc 19d6 45bc e106 22bc
00000130: fc80 853b 856e 01bd 52a8 4f3c d512 7cbb
00000140: 5c65 2abd fce8 d1bc 3342 f53c e356 21bb
00000150: 9d93 33bb 56e4 b4bc f157 913b ab39 683c
00000160: 2a86 4739 8a9d e3bc b837 4bbd b045 17bd
00000170: 3a6f e53b 8bac 65bc c4f3 79bc d84a dcba
00000180: c040 46bb 15ad a23c 0381 fa3c 5ce5 d4bc
00000190: 957d a0ba 6cdc 1e3c fa61 8c3c 3d20 2bbc
000001a0: d91f 3dbc e9d5 abbb 1129 d53b d4c1 893c
000001b0: 3f66 39bc 3087 e63b 7769 5f3c ac97 f8bc
000001c0: 5126 d5bb 7c14 4fbc 4b3d b43c 9af4 253c
000001d0: 5c79 1cbd 72b3 c3bc dbb4 d83b 4e1a 03bd
000001e0: 44ab 503c 68ba d83c a996 ca3c edf5 143d
000001f0: 9c7f e8bc 4f40 bbbb 739f 20bc 90b1 a4bc
00000200: 2f3f 5d3c 0191 dabc 521c c63c cc4c e1bc
00000210: 5594 f0bc 5e2b b23b 8477 f0bc 1968 df3c
00000220: b522 123d 7025 bd3c 1efe e83c e01a c93c
00000230: 7a1e 17bd 910f d03c 10ce f3bb d3a2 74bc
00000240: b4cd 313c cd23 d4bc 5f11 833c e610 7a3c
00000250: 2298 e73c 0d97 943c 6557 5bbb c8c4 063d
00000260: 432d b83c 7f21 8c3b 695f f0bc ed56 8bbc
00000270: 690b adbc d5eb 85bc c4f2 1dbd d8df 89bc
00000280: afac b9bc 5b77 6d3c 5b6e 2f3b 538c b23c
00000290: 7285 823c e5c7 883c dfc6 d63c 9cb9 02bc
000002a0: 29ff 673c 9b32 4ebc f9d5 ae39 6eae 373c
000002b0: ef74 89bc 32b8 02bd 2166 ce3c fe2f 2cbc
000002c0: b731 223d f5e3 c33b e2a9 a2bc 0716 8ebc
000002d0: 716f 35bb 2523 133d 5ee5 093d 84f2 b3bb
000002e0: 0675 093d 2bdf 863c 7177 0ebd 48d2 fabc
000002f0: 1afa 0dbc 14c8 8438 8017 f23c ab51 15bc
00000300: d610 16bc 78df 0d3d a46f 85bc 10b9 e3bc
00000310: 8e99 99bc 97e1 69bc e481 92ba bbc5 66bb
00000320: d8ac 0e3d d812 cebb 0cf1 8d3c c74a a43c
00000330: 7172 ba3c 4fd8 063a a7e1 12bb 16df 1abc
00000340: b074 b33c 7c98 043a 8bdb 88bc 2e74 a93c
00000350: 6632 7c3c 35d9 3ebc 3981 debb 3d32 123d
00000360: 62df 803c 51db c4bc f70a a33c 36d1 47bc
00000370: 582f 933c 63ac 173d 228a 06b8 b6a5 0d3d
00000380: 90bb e43c bbb5 36bc 24d7 8cbc 145d 31bd
00000390: f55a ffbb 48f4 40bb b253 ccbc c07c ce3c
000003a0: f984 1b3c 5c21 bfbc 583e 723c fcf6 f43c
000003b0: 9a66 9bbc 5aa1 9a3c beaf b43c bfc4 1fbc
000003c0: 7829 cfbc fc1a cfbb f5ce 863c 753f ab3c
000003d0: 22e2 edbb 0720 a5bc 6d12 f03c e76e 7f3c
000003e0: 5ecb 983c 99e3 543d 4375 4f3d b3b0 d2bc
000003f0: 46d6 123d e240 813c d71a 82bc fa57 793c

fc2.weight f4 [10, 128]
0.00288106 0.014269916 0.011855833 -0.0060724677 0.013909234 -0.008291108 -0.001449927 -0.0034676634
0.010057628 0.0012223745 -0.0112188365 -0.004192428 -0.0017357272 -0.019312901 0.0111222975 -0.013121159
-0.0019289912 0.0067741526 0.0104269665 -0.017689181 -0.0024893184 0.015385363 0.0026078168 -0.010436203
0.011539011 0.011692062 -0.0029087458 -0.013012878 -0.012736858 -0.00930393 -0.017257579 -0.008269393
0.019258112 -0.012767145 -0.010164462 0.009808326 0.017237669 0.014809645 -0.015264983 0.011129006
0.010524259 -0.0055999965 -0.00540068 -0.013829504 -0.011304418 0.01489276 0.008827873 -0.011612302
0.01939092 0.016142294 -0.004651358 0.004195328 -0.00689457 0.0136753395 0.0056046983 -0.019839434
-0.00062153157 0.01125422 0.0008807896 0.0076536103 0.012367141 0.015525857 0.012045205 -0.008576468
-0.010802139 -0.0017569802 0.011680645 -0.013675463 -0.015251398 0.011589167 0.01661641 -0.0104807215
-0.012667055 -0.009004665 0.001314175 0.0018280786 0.016023522 -0.0054519777 -0.009691479 -0.0059328135
0.010440367 0.005814658 -0.0073645674 -0.00022400408 -0.0121328505 -0.0059846076 0.00074451225 -0.012203604
-0.01291215 0.0011416697 0.010012871 -0.0072690425 -0.018529953 -0.014315745 -0.012780237 0.019904487
-0.014625053 0.008846386 0.010117537 0.01089389 -0.012678873 0.0056750174 -0.014182525 0.013402018
0.011247804 -0.01627815 0.015257575 -0.004265907 -0.010435156 -0.020120576 -0.0052760188 0.0015964125
-0.009163578 0.009156068 -0.011519703 -0.00818141 -0.010746853 -0.0005444667 0.014110793 -0.012705671
0.016058918 0.011801092 -6.9213194e-05 0.0026719668 -0.00690054 -0.01325808 -0.0064697387 0.010471722
-0.01263586 0.012010878 0.013925246 0.006463017 0.006674462 0.010014261 -0.011057098 0.016589765
-0.0056716837 0.010147136 -0.018833738 -0.018232893 0.012771408 -0.0077717686 0.0043201703 -0.012020726
-0.005952474 0.0045427736 -0.0015193094 -2.3583486e-06 0.01619379 0.0025585997 0.012044836 0.0020802051
-0.007919906 -0.008078168 -0.002081687 0.0044918493 -0.0045819134 -0.0066173705 -0.007543524 -0.007949224
0.00928148 0.012154941 -0.0037875639 -0.0075657424 0.014933627 -0.0114859585 -0.019204175 -0.011094615
-0.004800595 0.017152442 0.012513204 0.0032078305 0.0083373515 -0.0024476813 0.0059324997 0.010234738
0.013229161 0.00012388999 -0.009614553 -0.0056673754 0.002869009 -0.009485181 0.000417619 0.013362306
-0.006389768 0.0057306048 -0.01829196 0.007916143 0.014990036 0.004375648 -0.0068973233 -0.013297938
0.007577394 0.0021860502 0.0057881405 -0.0089136595 -0.018459765 -0.01244246 -0.006821846 -0.0059334245
-0.020412555 -0.01322882 0.018296216 -0.011434939 0.0045383763 -0.0036943567 -0.008059855 -0.013018009
-0.007933856 0.0033910354 -0.020204496 -0.0031139283 -0.0100644 -0.018083718 -0.0035241982 -0.015793474
-0.010115655 0.006038529 0.01120912 0.0033519685 -0.0069037685 -0.005412271 0.018352658 -0.017522236
0.016170193 -0.010686958 -0.0036767593 -0.017566709 0.002446823 -0.015048389 -0.0035893521 -0.01049317
-0.020153638 -0.015282677 0.004531987 0.0009932773 -0.01473337 -0.0057033408 -0.0040085483 -0.0024730372
0.0009894785 0.01091422 -0.00083631906 -0.001599088 -0.010233942 0.015382714 -0.019263403 -0.009739743
0.0016477741 -0.01187501 -0.013750313 0.007096102 -0.008102934 0.0069343518 -0.013646097 -0.012021916
00000000: 2ad0 3c3b 5ecc 693c f83e 423c 8dfb c6bb
00000010: 8ee3 633c 6dd7 07bc 7a0b beba bd41 63bb
00000020: c0c8 243c 1538 a03a 36cf 37bc a360 89bb
00000030: 5781 e3ba 1736 9ebc 4c3a 363c 21fa 56bc
00000040: 34d6 fcba b6f9 dd3b ded5 2a3c e7e8 90bc
00000050: d523 23bb e412 7c3c e8e7 2a3b 9cfc 2abc
00000060: 1f0e 3d3c 1090 3f3c a8a0 3ebb f733 55bc
00000070: 41ae 50bc 836f 18bc c45f 8dbc 597c 07bc
00000080: 30c3 9d3c 4a2d 51bc d888 26bc 1ab3 203c
00000090: 0336 8d3c 27a4 723c fb19 7abc 6f56 363c
000000a0: f16d 2c3c 2d80 b7bb 30f8 b0bb 2595 62bc
000000b0: 2a36 39bc c300 743c c8a2 103c 8641 3ebc
000000c0: b5d9 9e3c d83c 843c 6b6a 98bb f678 893b
000000d0: d8eb e1bb 880e 603c 9ea7 b73b 4f86 a2bc
000000e0: 47ee 22ba 9f63 383c cae4 663a 23cb fa3b
000000f0: 8d9f 4a3c 2a60 7e3c 4059 453c 5084 0cbc
00000100: 74fb 30bc 794a e6ba 2d60 3f3c 0d0f 60bc
00000110: 00e1 79bc 7de0 3d3c 231f 883c 55b7 2bbc
00000120: 7b89 4fbc 4d88 13bc 6540 ac3a 249c ef3a
00000130: c343 833c 81a6 b2bb 02c9 1ebc 0c68 c2bb
00000140: 130e 2b3c e388 be3b 7852 f1bb a3e2 6ab9
00000150: ddc8 46bc 871a c4bb 5f2b 433a a0f1 47bc
00000160: 7b8d 53bc 14a4 953a 060d 243c 2631 eebb
00000170: 21cc 97bc 968c 6abc 3364 51bc bc0e a33c
00000180: eb9d 6fbc 6ff0 103c 07c4 253c 497c 323c
00000190: 0cbb 4fbc 7ff5 b93b d25d 68bc 2394 5b3c
000001a0: b648 383c c159 85bc e8fa 793c 06c9 8bbb
000001b0: 37f8 2abc e8d3 a4bc 74e2 acbb b73e d13a
000001c0: d522 16bc 5503 163c 23bd 3cbc 520b 06bc
000001d0: 9213 30bc 8bba 0eba f530 673c 722b 50bc
000001e0: fe8d 833c 5e59 413c 8d26 91b8 2a1c 2f3b
000001f0: ed1d e2bb 6b38 59bc 1a00 d4bb 9691 2b3c
00000200: a306 4fbc 46c9 443c b726 643c b7c7 d33b
00000210: 72b5 da3b db12 243c d528 35bc 42e7 873c
00000220: 88d9 b9bb 2c40 263c 3649 9abc 265d 95bc
00000230: 2b3f 513c 52aa febb 3790 8d3b 94f2 44bc
00000240: f90c c3bb 8cdb 943b 9023 c7ba 1f44 1eb6
00000250: d7a8 843c 2eae 273b b457 453c 0d54 083b
00000260: 7ec2 01bc 4b5a 04bc ea6c 08bb 5d30 933b
00000270: e023 96bb 87d6 d8bb aa2f f7bb 763d 02bc
00000280: 5911 183c 8525 473c c738 78bb 0cea f7bb
00000290: 2cac 743c 9a2f 3cbc 1352 9dbc 30c6 35bc
000002a0: 4f4e 9dbb 4783 8c3c 2e04 4d3c 773a 523b
000002b0: 6399 083c 4769 20bb 6a65 c23b 9aaf 273c
000002c0: 1fbf 583c 77e8 0139 5c86 1dbc 64b5 b9bb
000002d0: fc05 3c3b bc67 1bbc e0f3 da39 93ed 5a3c
000002e0: 4261 d1bb ccc7 bb3b 05d9 95bc b6b2 013c
000002f0: c598 753c 9961 8f3b f102 e2bb 98df 59bc
00000300: ca4b f83b d643 0f3b 71aa bd3b 990a 12bc
00000310: ef38 97bc 76db 4bbc cb89 dfbb 2c6d c2bb
00000320: 3b38 a7bc b1bd 58bc f2e1 953c 9c59 3bbc
00000330: a9b6 943b 051d 72bb 7b0d 04bc 7d49 55bc
00000340: 01fd 01bc 223c 5e3b e683 a5bc 0c13 4cbb
00000350: 27e5 24bc 4e24 94bc 3cf6 66bb 5161 81bc
00000360: 22bc 25bc dade c53b 75a6 373c b3ac 5b3b
00000370: 0239 e2bb 6b59 b1bb 5058 963c cb8a 8fbc
00000380: 5a77 843c 5a18 2fbc c9f5 70bb 0fe8 8fbc
00000390: e15a 203b 858d 76bc 563b 6bbb 8beb 2bbc
000003a0: 3e19 a5bc 3164 7abc 1081 943b db30 823a
000003b0: 3c64 71bc 17e3 babb 245a 83bb ae12 22bb
000003c0: 64b1 813a 8ed1 323c 6c3c 5bba 7d98 d1ba
000003d0: 44ac 27bc c707 7c3c 49ce 9dbc 7193 1fbc
000003e0: 20fa d73a 678f 42bc fe48 61bc 6b86 e83b
000003f0: 2bc2 04bc 8f39 e33b e193 5fbc 92f7 44bc
