quant_he_code/weights/quant_hcnn_2bits_mnist_plain_4bits_weights.pth (torch, 65874 bytes, 3 tensors)

conv1.weight f4 [5, 1, 5, 5]
-0.013925684 0.028096566 0.07535205 0.011070678 -0.07117341 0.009691133 -0.0018716925 -0.04280998
0.05877926 -0.009816353 8.1555016e-05 0.024321977 -0.015536252 0.07273861 0.090509474 -0.008265292
0.089961745 0.049858652 -0.0032089148 0.030148832 0.0561739 0.03742872 -0.047708426 -0.06861252
-0.04896438 -0.015368663 0.013200408 -0.045325406 -0.016260637 0.0013869551 -0.043916427 0.0744379
0.05597058 0.06552924 0.04122204 -0.065606356 0.060481634 0.05009885 0.046209443 -0.06043321
-0.08132897 -0.09551536 -0.09366104 -0.012970497 0.0070947204 -0.028565045 0.02119454 -0.041993607
-0.06834791 0.008262291 -0.019230805 -0.09379017 -0.08486772 -0.032461695 0.031530425 0.055389445
-0.0063403756 -0.07442139 -0.08887634 0.02162041 0.088334724 0.0863233 0.029047636 -0.08029998
-0.02953 0.02424397 0.08143283 0.056782298 -0.04528851 -0.0319359 -0.037465654 0.022881605
0.040490497 -0.022883667 -0.007289874 -0.029695733 0.0016614421 -0.04530113 0.05436434 0.045800094
-0.079185024 -0.021453943 -0.0087201 0.091331564 -0.02408748 -0.08078642 0.0025376386 0.05192917
0.08643761 -0.048358243 -0.08778336 -0.008272297 0.047789343 0.08051887 -0.023999913 -0.068976976
0.0060857194 -0.015996424 0.03866452 0.026049709 -0.0071533863 0.014540321 0.022115618 0.011016953
-0.0033273625 0.02418138 0.022545645 -0.06035568 -0.043808993 0.026066924 -0.0652831 -0.08581773
-0.06804407 -0.0034890682 0.08993923 -0.08964647 -0.034501325 0.041130852 0.09564164 0.018115312
0.05350724 0.08433362 0.09067343 0.03344419 -0.035606913
00000000: 8d28 64bc c52a e63c 2d52 9a3d ca61 353c
00000010: 5dc3 91bd 8fc7 1e3c 9453 f5ba 8559 2fbd
00000020: 85c2 703d c5d4 20bc 8408 ab38 e23e c73c
00000030: c48b 7ebc fbf7 943d 085d b93d 266b 07bc
00000040: dd3d b83d 9638 4c3d a84c 52bb affa f63c
00000050: 9a16 663d dc4e 193d e969 43bd b984 8cbd
00000060: e08e 48bd d8cc 7bbc 8646 583c 22a7 39bd
00000070: 0735 85bc 7eca b53a b6e1 33bd e672 983d
00000080: 6841 653d 3234 863d 71d8 283d a05c 86bd
00000090: 97bb 773d 7434 4d3d 1d46 3d3d d088 77bd
000000a0: ce8f a6bd 8f9d c3bd 5cd1 bfbd 3582 54bc
000000b0: d47a e83b 3e01 eabc 2ca0 ad3c 7d01 2cbd
000000c0: fdf9 8bbd 8f5e 073c ec89 9dbc 1015 c0bd
000000d0: 21cf adbd 8ef6 04bd 0c26 013d 0be0 623d
000000e0: edc2 cfbb 3e6a 98bd cc04 b6bd 491d b13c
000000f0: d6e8 b43d 45ca b03d 4ff5 ed3c 5174 a4bd
00000100: e6e8 f1bc 4a9b c63c 41c6 a63d 8e94 683d
00000110: 7280 39bd 38cf 02bd 9675 19bd 3472 bb3c
00000120: 5dd9 253d 8776 bbbc e5df eebb 7744 f3bc
00000130: bfc4 d93a ad8d 39bd 24ad 5e3d e198 3b3d
00000140: c22b a2bd 2ec0 afbc c0de 0ebc 0b0c bb3d
00000150: 1b53 c5bc 5a73 a5bd 834e 263b aeb3 543d
00000160: 3406 b13d 4b13 46bd c3c7 b3bd 8788 07bc
00000170: c2be 433d 14e7 a43d 779b c4bc cd43 8dbd
00000180: b76a c73b ef0a 83bc b05e 1e3d 3366 d53c
00000190: f466 eabb 873a 6e3c d02b b53c 7380 343c
000001a0: e10f 5abb 0818 c63c a5b1 b83c 8437 77bd
000001b0: 0f71 33bd 4d8a d53c 25b3 85bd 35c1 afbd
000001c0: b05a 8bbd daa8 64bb 0f32 b83d 9298 b7bd
000001d0: 4351 0dbd d378 283d c4df c33d 9066 943c
000001e0: 682a 5b3d 1bb7 ac3d feb2 b93d c6fc 083d
000001f0: 8ed8 11bd

conv2.weight f4 [50, 5, 5, 5]
0.009571414 -0.19292945 -0.33381233 -0.7527847 -0.5801175 -0.15661646 -0.09550341 -0.20944098
-0.68877053 -0.5811107 0.07149637 -0.380477 0.27195808 0.045237444 0.33228782 0.57378167
0.4157797 0.4182579 0.27885798 0.47622156 0.80455273 0.28083774 0.27089176 0.26399478
0.48594245 -0.85874295 0.072936565 -0.41028696 0.051552337 -0.12682302 -0.42209843 -0.08968895
0.07594709 0.08410451 0.030240886 -0.26987267 -0.09827245 0.08831406 0.115092486 0.74497795
0.1210545 -0.06306954 0.23897083 0.6954068 0.58916414 0.041969817 0.5939267 0.20481117
0.07915302 0.5430637 0.2719882 -0.22506005 0.09513233 -0.18675385 -0.4125102 -0.34011897
-0.48643574 -0.54955596 -0.29585493 -0.018567298 -0.58938986 -0.50389874 -0.062756084 0.042611007
0.2196342 -0.11681226 0.054707963 0.21812393 0.4422776 0.56111765 -0.58278763 -0.09357722
0.21379687 0.719704 0.76102936 0.11587377 0.5569421 -0.05799226 -0.32129753 -0.3284588
-0.19665965 -0.031521462 -0.7014804 -0.8296159 -0.8096782 0.40153882 -0.31292674 -0.12520054
0.09731467 -0.26314795 0.18046767 0.39567658 0.17475158 0.12923755 0.15784262 0.6122534
0.4457455 0.3106519 0.2522448 0.010240646 -0.10765274 -0.09673421 -0.7080504 -0.26524535
-0.092483275 -0.19106983 0.09281276 -0.4955239 -0.35457078 -0.32503116 0.42876306 0.2026797
0.088663734 0.052675087 -0.34661198 0.11595096 0.26027876 0.23782536 0.43255398 0.25983202
0.0256134 0.18523696 0.15728171 0.12705688 -0.2028642 0.68470055 -0.32223457 0.0010807114
0.29940724 0.77884316 -0.051640306 -0.067180105 -0.03036873 0.67318827 0.35614246 -0.28958163
0.5153399 0.15223788 0.36728215 0.0016214654 -0.7732291 -0.3197453 0.047938753 -0.3479213
-0.42194334 -0.35770032 -0.44344884 -0.09479947 -0.5611992 -0.37385112 -0.028800542 0.035186417
0.20182808 0.24343932 0.4477327 -0.08388098 0.10177462 0.77153254 0.4412516 0.34192488
0.0063885534 -0.055947047 0.29357433 0.34213048 0.22193189 0.25881213 -0.4994588 -0.33602703
-0.24109448 -0.346874 -0.19947077 -0.6251053 -0.57981485 -0.28998837 0.26121703 0.24466124
0.038406894 0.7212226 0.74628085 0.14512418 -3.6476566e-05 0.1334457 0.6675777 0.32552204
0.27474284 0.41740045 0.52984196 0.73804235 0.2133724 0.5764433 0.07545374 -0.016004574
-0.09301007 0.2196782 0.019253468 -0.5710033 -0.39455488 -0.5155093 -0.41955674 -0.17813459
0.669592 0.45728418 -0.09159805 0.38091967 0.08603832 0.22346306 -0.17272863 -0.38646993
-0.30730695 0.11218895 -0.36262715 -0.246746 -0.68694866 -0.8204974 -0.59346825 -0.3155657
-0.38909578 -0.20526953 -0.302979 0.16670051 -0.47637564 0.036159035 0.24153283 -0.114256
-0.33079305 -0.3681661 -0.10166902 -0.30133674 -0.055221047 -0.13987713 -0.32598674 0.06175856
-0.036365356 -0.08581209 -0.22536275 -0.19095114 0.3310347 -0.09096361 -0.24066746 0.011449454
0.31129423 0.6177766 0.3313054 -0.23732935 -0.33029905 0.028169287 -0.14677744 -0.7559325
-0.6810101 -0.5095666 -0.6658042 0.4682169 -0.033621494 -0.6570647 0.31107688 -0.40155002
00000000: 6cd1 1c3c 4c8f 45be 73e9 aabe 80b6 40bf
00000010: 9582 14bf 1160 20be 4b97 c3bd b277 56be
00000020: 4453 30bf acc3 14bf b06c 923d e2cd c2be
00000030: 173e 8b3e e64a 393d a121 aa3e 5be3 123f
00000040: 14e1 d43e e625 d63e 79c6 8e3e 50d3 f33e
00000050: 2bf7 4d3f f7c9 8f3e 53b2 8a3e 532a 873e
00000060: 73cd f83e 94d6 5bbf c45f 953d 2211 d2be
00000070: 8b28 533d e5dd 01be 491d d8be d7ae b7bd
00000080: 268a 9b3d fc3e ac3d bcbb f73c c02c 8abe
00000090: 1143 c9bd 00de b43d 9cb5 eb3d e0b6 3e3f
000000a0: 6ceb f73d 9a2a 81bd c5b4 743e 2e06 323f
000000b0: 76d3 163f 8be8 2b3d 950b 183f 05ba 513e
000000c0: fb1a a23d 3906 0b3f 0a42 8b3e 2476 66be
000000d0: bdd4 c23d 673c 3fbe 8934 d3be 1324 aebe
000000e0: 1b0e f9be b3af 0cbf 4c7a 97be 721a 98bc
000000f0: 41e2 16bf 82ff 00bf 4386 80bd e188 2e3d
00000100: cae7 603e 443b efbd 7515 603d e15b 5f3e
00000110: 3672 e23e 68a5 0f3f 9231 15bf 6aa5 bfbd
00000120: 91ed 5a3e 853e 383f d2d2 423f 3a4f ed3d
00000130: c293 0e3f 4b89 6dbd 1c81 a4be c02b a8be
00000140: 2661 49be a61c 01bd 3894 33bf b561 54bf
00000150: 1247 4fbf 7f96 cd3e ef37 a0be 9234 00be
00000160: ea4c c73d 54bb 86be 84cc 383e 1f96 ca3e
00000170: 14f2 323e d956 043e 7fa1 213e a4bc 1c3f
00000180: c138 e43e c40d 9f3e 3b26 813e 62c8 273c
00000190: 0a79 dcbd 961c c6bd ca42 35bf 3dce 87be
000001a0: df67 bdbd cfa7 43be 9e14 be3d 4fb5 fdbe
000001b0: 4d8a b5be 7c6a a6be d586 db3e 448b 4f3e
000001c0: 5595 b53d d5c1 573d 2077 b1be b277 ed3d
000001d0: 4243 853e 7e88 733e b777 dd3e b408 853e
000001e0: 31d3 d13c c2ae 3d3e 750e 213e 331b 023e
000001f0: a2bb 4fbe 8948 2f3f eefb a4be a8a6 8d3a
00000200: e84b 993e 4462 473f c984 53bd b995 89bd
00000210: d8c7 f8bc 1156 2c3f 4e58 b63e 0b44 94be
00000220: 51ed 033f 3fe4 1b3e 680c bc3e 5a87 d43a
00000230: 58f2 45bf a8b5 a3be 6d5b 443d be22 b2be
00000240: f508 d8be 7f24 b7be ba0b e3be 3926 c2bd
00000250: c0aa 0fbf 6a69 bfbe 1def ebbc a21f 103d
00000260: 05ac 4e3e 2848 793e 383d e53e cbc9 abbd
00000270: 366f d03d 2883 453f bbeb e13e c710 af3e
00000280: 1257 d13b bb28 65bd 604f 963e ba2b af3e
00000290: 1d42 633e 0683 843e 10b9 ffbe bc0b acbe
000002a0: 79e1 76be 7899 b1be 1142 4cbe e706 20bf
000002b0: bf6e 14bf 5b79 94be 3dbe 853e 7a88 7a3e
000002c0: 8c50 1d3d 0ba2 383f 430c 3f3f 6f9b 143e
000002d0: 6afe 18b8 fda5 083e 5fe6 2a3f d3aa a63e
000002e0: 18ab 8c3e 83b5 d53e b9a3 073f 58f0 3c3f
000002f0: 4b7e 5a3e ca91 133f 7e87 9a3d 061c 83bc
00000300: 107c bebd 52f3 603e 73b9 9d3c 462d 12bf
00000310: 1903 cabe 6bf8 03bf 24d0 d6be ea68 36be
00000320: 626a 2b3f 2721 ea3e c297 bbbd e707 c33e
00000330: dc34 b03d 80d3 643e c6df 30be 63df c5be
00000340: 5657 9dbe 52c3 e53d 44aa b9be fcaa 7cbe
00000350: dedb 2fbf 1e0c 52bf 89ed 17bf d491 a1be
00000360: 9037 c7be 2d32 52be 1020 9bbe 8ab3 2a3e
00000370: 82e7 f3be 7f1b 143d 6254 773e 0dff e9bd
00000380: b55d a9be 4480 bcbe d937 d0bd cf48 9abe
00000390: 772f 62bd f33b 0fbe bce7 a6be 8bf6 7c3d
000003a0: d7f3 14bd 40be afbd 7ec5 66be b288 43be
000003b0: 617d a93e 214b babd 8871 76be 7e96 3b3c
000003c0: f561 9f3e 9b26 1e3f dda0 a93e 7706 73be
000003d0: f51c a9be 47c3 e63c d34c 16be cb84 41bf
000003e0: ae56 2ebf f572 02bf 2572 2abf 20ba ef3e
000003f0: b1b6 09bd 6435 28bf 7845 9f3e f797 cdbe

fc1.weight f4 [10, 800]
0.00661313 0.22131328 0.2900953 0.39319092 -0.27640602 -0.069504514 0.30712548 -0.9573656
-0.8546327 -0.36865097 -0.47194436 -0.83341944 -0.9415653 -0.3871746 0.27519956 0.78044295
0.29407784 -0.017672362 -0.17438202 -0.10843658 -0.29050058 -0.57389253 -0.45966727 0.5947908
0.04944331 0.09706001 0.26962847 -0.21811886 0.061271872 0.44345596 0.6522244 -0.13851993
0.075955495 0.08558966 -0.20285507 -0.608287 -0.22631232 -0.5498102 0.56718767 0.38288352
0.08586556 -0.29126006 0.20809929 0.6407148 0.20371802 0.5395235 0.4880721 0.0103829885
0.1878929 0.2010452 -0.17634968 -0.023439838 0.5041714 -0.9902904 0.140166 -0.14439516
-0.29227614 -0.5128729 -0.5231135 0.31445533 0.24957554 0.39296144 0.042317342 -0.046971653
0.4474046 -0.09726557 -0.39173213 -0.0017177976 0.6926772 0.08019359 -0.23531544 0.4491101
0.43932945 0.106991574 -0.16364515 -0.07688915 0.46252054 0.22931482 -0.80861926 -0.22960919
-0.6735313 -0.20221609 -0.47812074 -0.49016568 0.01756089 -0.5874787 -0.6748047 0.25658494
-0.46348637 -0.5215316 0.067869894 0.2241904 0.038755275 0.0049837483 0.7098339 0.6513368
0.58870435 0.3758779 0.2504068 -0.017805697 -0.0209571 0.25012422 0.34464845 -0.38259774
0.09116076 -0.024478689 -0.36036035 -0.83973336 -0.20340411 -0.12543301 -0.89277685 -0.9221115
0.35179257 0.24899952 -0.24760848 0.15146683 0.20628546 0.2388209 0.20678145 0.4505171
0.4149172 -0.35965726 0.062438846 0.19804032 -0.0961334 0.030525217 -0.5975358 -0.412333
-0.25948954 -0.5304217 0.2785886 0.74746406 0.16536164 0.14352153 0.54946643 0.65571356
0.37791902 -0.29800308 -0.9702809 -0.3204702 0.36654723 0.43544865 -0.92759585 -0.94290084
-0.6472715 0.2505979 -0.052261505 -0.349001 -0.05953602 -0.5358037 0.402915 -0.5327363
-0.084241815 0.16971725 -0.15377219 0.22222053 0.91196364 0.26663405 -0.11484148 -0.9498489
-0.2716536 0.028012076 -0.62943083 -0.74256563 0.18282151 -0.04885503 -0.38312182 0.05242574
0.021153409 0.15403175 -0.95594996 0.007259864 0.5142826 0.30696142 -0.9822136 -0.61121464
-0.86294144 0.65794724 0.30734593 0.14179106 0.07130445 0.087649636 0.13633393 0.5507193
-0.043753218 0.10749424 -0.018299963 0.40395665 -0.24607903 -0.039696153 0.032459933 0.3548257
-0.63049334 -0.38015676 0.13699116 0.6060396 0.7732262 0.38083804 0.44164774 0.21148185
0.1891297 -0.82493037 -0.20101626 0.562317 0.05656264 -0.35169774 -0.4929323 -0.25507253
0.0022210241 -0.63930273 -0.3391796 -0.86173874 0.15098357 0.21204107 -0.2747167 -0.091957375
-0.3567425 -0.4001675 -0.28926644 0.26580718 0.064964935 -0.8398849 -0.12983397 0.05616919
0.0719119 -0.024026196 -0.26452896 -0.91822714 -0.9674846 -0.46424028 -0.697046 -0.29017797
-0.8956553 -0.6484176 -0.43000564 -0.12822467 -0.77901214 -0.30970976 0.30105945 1.0107949
-0.0477975 0.7108952 -0.20216528 0.21184516 0.2785573 0.418197 -0.058182698 -0.45291075
0.5634405 0.4391585 -0.14021617 -0.13342734 0.26861474 0.1526792 -0.76777613 -0.40975535
00000000: f5b2 d83b f39f 623e 5f87 943e 5250 c93e
00000010: 1785 8dbe 6258 8ebd 8d3f 9d3e e915 75bf
00000020: 35c9 5abf d2bf bcbe b1a2 f1be fa5a 55bf
00000030: 6c0a 71bf c03b c6be f5e6 8c3e 1ccb 473f
00000040: 5f91 963e a1c5 90bc 3391 32be ff13 debd
00000050: 7ebc 94be 9fea 12bf 8259 ebbe 3644 183f
00000060: 1185 4a3d 66c7 c63d be0c 8a3e 8d5a 5fbe
00000070: 37f8 7a3d a90c e33e 2ef8 263f 2bd8 0dbe
00000080: 8e8e 9b3d a249 af3d 3db9 4fbe b2b8 1bbf
00000090: 6bbe 67be 5cc0 0cbf 3633 113f 4f09 c43e
000000a0: 48da af3d 0a20 95be fb17 553e e305 243f
000000b0: 759b 503e 361e 0a3f 96e4 f93e 691d 2a3c
000000c0: ff66 403e cbde 4d3e 0395 34be e704 c0bc
000000d0: 6011 013f ac83 7dbf ad87 0f3e 53dc 13be
000000e0: 38a5 95be a34b 03bf c4ea 05bf 4a00 a13e
000000f0: bb90 7f3e 3e32 c93e f354 2d3d 5965 40bd
00000100: 3712 e53e 2c33 c7bd 1d91 c8be b927 e1ba
00000110: 4b53 313f 893c a43d 88f6 70be c2f1 e53e
00000120: caef e03e 661e db3d 9892 27be 0f78 9dbd
00000130: 7ecf ec3e 81d1 6a3e ac01 4fbf ac1e 6bbe
00000140: 8c6c 2cbf bc11 4fbe 3ecc f4be fff6 fabe
00000150: dbdb 8f3c 0165 16bf 00c0 2cbf 1a5f 833e
00000160: 164e edbe 1883 05bf 5fff 8a3d 2b92 653e
00000170: dabd 1e3d b64e a33b adb7 353f 02be 263f
00000180: 54b5 163f 1173 c03e 5235 803e 41dd 91bc
00000190: 39ae abbc 4810 803e c375 b03e dae3 c3be
000001a0: 7eb2 ba3d 8887 c8bc 2781 b8be c4f8 56bf
000001b0: 2b49 50be 8371 00be 068d 64bf 800f 6cbf
000001c0: 281e b43e bbf9 7e3e 148d 7dbe 1f1a 1b3e
000001d0: 7f3c 533e 778d 743e 84be 533e 2daa e63e
000001e0: 0770 d43e ff24 b8be e0bf 7f3d 15cb 4a3e
000001f0: 97e1 c4bd 0510 fa3c 1bf8 18bf 501d d3be
00000200: d0db 84be b7c9 07bf 2aa3 8e3e ce59 3f3f
00000210: 9054 293e 4ff7 123e d5a9 0c3f d8dc 273f
00000220: 9a7e c13e dc93 98be 5464 78bf ac14 a4be
00000230: 14ac bb3e 20f3 de3e ec76 6dbf f361 71bf
00000240: 96b3 25bf 5e4e 803e 2910 56bd 42b0 b2be
00000250: 0bdc 73bd 6e2a 09bf e04a ce3e 6861 08bf
00000260: f986 acbd 5cca 2d3e 7576 1dbe c78d 633e
00000270: 7376 693f 4284 883e 0332 ebbd 4c29 73bf
00000280: 2e16 8bbe 9579 e53c 6122 21bf c818 3ebf
00000290: 9035 3b3e 361c 48bd 8b28 c4be 5fbc 563d
000002a0: ea49 ad3c 80ba 1d3e 23b9 74bf 27e4 ed3b
000002b0: 06a8 033f 0c2a 9d3e 5a72 7bbf 9078 1cbf
000002c0: bbe9 5cbf 3b6f 283f 725c 9d3e ad31 113e
000002d0: 1108 923d a781 b33d 1f9b 0b3e f1fb 0c3f
000002e0: 9336 33bd f125 dc3d cee9 95bc 68d3 ce3e
000002f0: 24fc 7bbe 6f98 22bd b5f4 043d b7ab b53e
00000300: 0368 21bf e8a3 c2be 6947 0c3e 6925 1b3f
00000310: 27f2 453f 34fd c23e a71f e23e b38e 583e
00000320: 37ab 413e a32e 53bf 35d7 4dbe 02f4 0f3f
00000330: 3aae 673d ba11 b4be 9f61 fcbe de98 82be
00000340: 9a8e 113b 58a9 23bf f3a8 adbe e99a 5cbf
00000350: 709b 1a3e 4b21 593e aba7 8cbe 2654 bcbd
00000360: f4a6 b6be c1e2 ccbe bb1a 94be e117 883e
00000370: 560c 853d b202 57bf 32f3 04be aa11 663d
00000380: 8c46 933d 96d2 c4bc 5770 87be ef10 6bbf
00000390: 12ad 77bf e7b0 edbe 9b71 32bf 3592 94be
000003a0: aa49 65bf b2fe 25bf b329 dcbe 544d 03be
000003b0: 576d 47bf 4792 9ebe 7724 9a3e ba61 813f
000003c0: 50c7 43bd 3afd 353f 6a04 4fbe f0ed 583e
000003d0: 109f 8e3e eb1d d63e fb50 6ebd ebe3 e7be
000003e0: a33d 103f 62d9 e03e d494 0fbe 2da1 08be
000003f0: df87 893e f057 1c3e fa8c 44bf 74cb d1be
