quant_he_code/weights/quant_fc_2bits_mnist_plain_2bits_weights.pth (torch, 412203 bytes, 2 tensors)

fc1.weight f4 [128, 784]
00000000: 4aa3 4bbc 8e22 d23c 7e01 a0bc 57e8 cebc
00000010: f5bc 113d 8347 8abc 411f f4bc 7b21 073d
00000020: 5c30 dcbc 25f6 163c fc01 903c b0a2 a63c
00000030: bc93 c1bd d896 ffbd 7302 e53c 053f 313c
00000040: 9191 d73c 36eb 073d b5ef bcbc fc45 45bc
00000050: eef4 e93b 25a5 b039 aa8c d1bc 20ba 063c
00000060: 6a06 45bc c0ab 833c c13b b9bc 2ab3 c0bc
00000070: c369 ac3c aa76 e5bc 5c2b afbb cef0 a2bc
00000080: 2527 703c a39c d53c b977 2fbe c1c1 2ebe
00000090: 0f69 e63d 8d20 363d 1ebb e1bd b8d8 a8bd
000000a0: 2046 dfbe b303 aebe 0976 4cbe b872 99be
000000b0: 40d2 403e c767 3cbe e296 a0be c54a 0fbf
000000c0: bee0 38bf fd5b 13bf 8c8f 05bf 4643 ffbc
000000d0: 2e90 37bc 535d 993c 6e26 bebc 5e16 b13c
000000e0: e5d8 183c 452e 38bc d3d2 bb3b f814 6bbc
000000f0: a58b 5d3c 9c51 4b3c fa36 dd3a 229d d8bc
00000100: 1a74 9cbd 008b fc3e a0a6 8b3e c86b 4ebd
00000110: f336 d43d 69e7 893e 51f8 c43e 86c0 043e
00000120: 0725 2cbf 8332 03bf b24f a4be 3d13 79bf
00000130: 2309 18bf 3d75 03bf 2697 75bf 8164 80be
00000140: 1d0a b83d d92c 743d 93f0 51ba 135f 803c
00000150: 4a0b 293c ea10 4ebc 7336 56bd 6f0c b1bc
00000160: 9036 ecbc 0372 103e 6368 bf3d b718 8abe
00000170: 5321 143f 04c3 4e3f 939a 8ebe 6099 8f3e
00000180: 4ea0 3d3f e1ba 9b3e 4031 fc3c 59ed ad3e
00000190: fa39 323f d0ce 62be 2a97 f73e 581e 7b3e
000001a0: 8012 293d 3483 d43d afd2 223c 030f 4d3f
000001b0: df56 7cbe 5063 a5be e11e ef3c 0756 d93c
000001c0: 41a4 ccbc 6a88 4bbc a04d 083f 3a0b 9bbc
000001d0: c10c 91be cb24 fe3e 4391 233f ffac cdbd
000001e0: f5aa 30bf 07f2 27bf 4d16 50be a892 b13e
000001f0: 2d72 1a3f 58a6 be3e 53d5 c63e 4c4c aa3e
00000200: fb3b ab3d 6415 07bf fd03 d03e 705e 883f
00000210: 2e41 3a3f b825 02bf 3745 42be 9802 13bf
00000220: ceeb 06be 9826 143e 7bab f8be f32f 1c3c
00000230: 5c75 9f3c 83cd abbc 7962 633d 93b6 893e
00000240: 4b60 1d3f 7e1d 66bd 9eab c8bd 967d 13bf
00000250: b3cc e2be 2b01 28bf b49f 323f 689f 593f
00000260: ee90 db3e e812 033e fece 26bf c5a1 44be
00000270: f8e3 6c3e 5805 0fbf 0fa6 10bf 3ab0 39be
00000280: 2104 abbe e689 52bf 5b33 26bf 61f5 44bf
00000290: bb91 593e 5e1d febe 3754 7ebe 3162 fabe
000002a0: fce8 5cbc f5df cdbc 9ef2 04bf d9f9 51be
000002b0: 0ecb 893c 11c7 4bbe 521a ae3e 10df 44bd
000002c0: 6173 463e e450 0d3f fca4 2b3e 6e93 49be
000002d0: 46c1 023f a988 4abe e769 373e e2b2 e63e
000002e0: 61e4 7f3f 503c 013d 61b6 9b3e ff92 d7be
000002f0: fcd3 12bf 87ad 9a3d 7b85 1dbf f3e2 f9be
00000300: e2ab e8be 2676 90bf 71d1 4cbf 2054 12bf
00000310: 8d34 0b3d 706a 483e 64df fa3e bffd abbe
00000320: 8984 993e 966c 403f 25db 2d3f 5644 debd
00000330: 9d3f a8be f2cc 13bf 769a c33e dc06 15bf
00000340: c11c d5bc 1eac 88be b402 233e 0f3a ff3d
00000350: a1cc ff3e 9ae1 203f c0bd d0be fdbc b73e
00000360: b621 753f 80c3 b63e 9a1e 5b3f 3dae 1abf
00000370: 750a 85be 697a 67bf 1907 80bf fc28 ecbe
00000380: f418 8ebc 6711 39bc 3b94 be3e 3ded 893e
00000390: 6139 dc3d bea5 803d 6caa fbbe 00df e4be
000003a0: 3420 4abe 0e52 523e d062 1f3f 2c84 febd
000003b0: 5b97 c2be ae8f 093f 0a78 fd3e 5271 063f
000003c0: e2c9 b3be 48d4 d93e ea6a 533e c609 283f
000003d0: ad39 d13e 456b 0cbc 0f09 1cbf c90a 7a3f
000003e0: 0264 84bf 7f0d e3be dd40 373e aef4 e13d
000003f0: f3f2 f6bd 1264 c1bd 2021 ac3d 584c d73e
-0.012429068 0.025651243 -0.019531962 -0.025257273 0.035580594 -0.016879803 -0.02980006 0.032990914
-0.026878528 0.009213959 0.017579071 0.020341247 -0.09452006 -0.12479943 0.02795527 0.010818248
0.026314529 0.0331833 -0.02306352 -0.012040611 0.0071397936 0.00033692378 -0.02557977 0.008223087
-0.012025455 0.016073108 -0.0226115 -0.023522932 0.021046525 -0.028010685 -0.005345745 -0.019890215
0.01465777 0.026075667 -0.17135514 -0.17066099 0.11250507 0.044464637 -0.11022018 -0.08244461
-0.4360819 -0.33987197 -0.19966902 -0.29970336 0.18830204 -0.18398963 -0.31365114 -0.55973464
-0.7221793 -0.5756224 -0.5217216 -0.031160008 -0.011203809 0.018721258 -0.023211684 0.02161711
0.009329055 -0.0112415 0.0057319193 -0.014348261 0.013522063 0.012409594 0.0016877346 -0.026442114
-0.07639332 0.493248 0.27275562 -0.050395757 0.10362043 0.26934364 0.384707 0.12964067
-0.67244 -0.5124895 -0.32092053 -0.9729498 -0.5938894 -0.51350766 -0.9593376 -0.25076678
0.08986304 0.059613083 -0.00080085656 0.015670335 0.010317633 -0.012577275 -0.05229802 -0.021612374
-0.028834611 0.14105992 0.09346082 -0.2697198 0.5786335 0.8076632 -0.27852306 0.28046703
0.7407273 0.30416015 0.030785203 0.33970144 0.69619715 -0.22149205 0.48357517 0.24523294
0.04127741 0.103765875 0.009937926 0.8010103 -0.24642514 -0.32302332 0.029189529 0.026530279
-0.024980666 -0.01242266 0.53243446 -0.018926252 -0.28330043 0.49637446 0.63893527 -0.10042762
-0.6901086 -0.6560368 -0.20321007 0.34682202 0.6033047 0.37236285 0.38834628 0.33261335
0.0836105 -0.52767015 0.40628043 1.065382 0.72755706 -0.50838804 -0.18971716 -0.5742583
-0.1317589 0.14467847 -0.4856833 0.009532916 0.019465141 -0.020972019 0.055513833 0.26897106
0.61475056 -0.05618047 -0.097983584 -0.57613504 -0.44296798 -0.6562678 0.6977494 0.8500886
0.4288401 0.12800181 -0.65159595 -0.19202335 0.23133838 -0.5586753 -0.56503385 -0.18133631
-0.33401588 -0.82241666 -0.6492211 -0.7693692 0.21246998 -0.4963178 -0.24836813 -0.4890304
-0.013483282 -0.025131205 -0.51932704 -0.20505466 0.016820457 -0.19900157 0.34004456 -0.04806429
0.19379951 0.55201554 0.16762155 -0.19685146 0.5107616 -0.19778694 0.17911492 0.45058352
0.99957854 0.03155166 0.30412582 -0.42104337 -0.5735471 0.07552629 -0.615318 -0.4880596
-0.45443636 -1.1286056 -0.8000708 -0.57159615 0.033985663 0.19571853 0.4899856 -0.3359203
0.2998393 0.7516569 0.67912513 -0.10852878 -0.32861033 -0.57734597 0.38203782 -0.5821359
-0.026014687 -0.26693815 0.15919 0.12462246 0.49960807 0.6284424 -0.40769768 0.35886374
0.95754564 0.3569603 0.8559357 -0.60422117 -0.2598454 -0.9042116 -1.0002166 -0.4612502
-0.017345883 -0.011295653 0.37222466 0.2693881 0.10753132 0.06281613 -0.4915346 -0.44701385
-0.19738847 0.20539114 0.6226015 -0.124275535 -0.380061 0.5373486 0.49505645 0.52516663
-0.35114962 0.4254477 0.20646253 0.65639913 0.40864316 -0.008570497 -0.6095132 0.97672707
-1.034302 -0.44346234 0.17895837 0.11032997 -0.12058058 -0.09442915 0.084047556 0.42050433

fc2.weight f4 [10, 128]
00000000: f453 31be 69c4 053e d39c 1ebe a0a6 5cbe
00000010: 2425 8cbd d433 debd c028 06be 91a5 4cbe
00000020: b63f 04be 0f1c 30be 773f 41be f7b6 19be
00000030: 0653 a13d e72e c03d c117 3cbe 7860 52be
00000040: 5624 ef3d 30fb c83d f66f 033e f7ae 33be
00000050: cf27 b3bd 0195 34be 3d58 2c3e c3ff 49be
00000060: 4c16 fcbd aff0 393e 0286 09be ba69 44be
00000070: 261d 503e 6fab 3f3e 8e6f 29be 599c 3ebe
00000080: fc53 503e f8aa 35be 73b8 0a3e 2c1e d8bd
00000090: f2d5 4c3e 7bab 2cbe 411c 42be 8969 033e
000000a0: 06d1 40be 35d3 24be 8fa6 49be df30 32be
000000b0: c782 353e ce7f 38be a337 b23d 73ba 3ebe
000000c0: 22dd 0bbe 4577 bfbd e202 133e 8860 c53d
000000d0: 5c22 543d 840e 48be d710 093e ff9c 233e
000000e0: 650e 523e 8e17 efbd f846 08be 4abf 013e
000000f0: 4a7a 30be 31ba 453e 36b1 bbbd b9e1 013e
00000100: d790 58be 19b8 033e 8fe9 cf3d 994c 8e3d
00000110: fee6 0ebe 1aed 373e ba8a 11be b6ba 203e
00000120: 4164 183e ea6f 373e 5744 f9bd 071b 373e
00000130: c8c5 433e 603e fc3d 291b 153e 5650 9cbd
00000140: 9eac 4bbe 0499 39be 1c37 2ebe ae18 1bbe
00000150: 8fce 39be 6d28 de3d f746 253e 26c9 2bbe
00000160: 785e 50be 323a 773d ea63 463e 87e6 233e
00000170: 969c 5abe 6113 f4bd 8dc8 393e 2850 1f3e
00000180: b0e5 1fbe f44f 0f3e 2ce2 543e 9baa 18be
00000190: b80c 42be a288 4cbe cd80 053e 228b 54be
000001a0: 5d6a ff3d 7c8e 1dbe 8680 24be 8b35 22be
000001b0: f6ec 363e 43de 43be 786b 52be 872c cd3d
000001c0: 3aaf 34be 6239 d53d 7f0c 403e 4610 f8bd
000001d0: 832e 403e e902 4b3e 2869 c93d 6f2d 2f3e
000001e0: cbac 3bbe d16e d03d c1ae 43be dd02 1a3e
000001f0: f9c9 16be 7483 273e 68fc eebd 03c2 c73d
00000200: 5926 1e3d fc47 c43d 8b4b 35be 0ec6 313e
00000210: acfb 38be 7f04 533e fe7a 21bd 2f9c d53d
00000220: d507 4dbe 6814 e43d cee3 bb3d 4353 4dbe
00000230: 7010 dd3d 187b 1e3d 45fa 35be 9c36 3cbe
00000240: 1f0d 4b3e 91b1 fbbd 93ac 323e b9ef db3d
00000250: 2647 463e 3188 e5bd e2f8 dabd a218 f2bd
00000260: 6c85 3b3e 2d58 42be e280 1abe 75d1 47be
00000270: 5919 d33d 80ae 1bbe 758a d8bd c9de e33d
00000280: 59d7 493e 3d4b 36be ebe6 cb3d afba 4a3e
00000290: 13f7 38bc a10c 5cbe 8c8c 4b3e cf65 24be
000002a0: cbde 42be 2c39 523e 3cb9 ea3d 4d80 3d3e
000002b0: 2bf1 57be b04a 483e e349 36be 9b5b cc3d
000002c0: b23a 23be 7377 033e d564 44be 8595 ecbd
000002d0: e392 3abe 6b5a 9b3d d5dc c3bd d388 09be
000002e0: 8b61 fa3d 7109 4fbe da92 b13d 1afb 473e
000002f0: 7594 f13d 34e2 e03d 7ad0 69bd 0171 e4bd
00000300: 09a7 dc3d 5323 f2bd 7120 3bbe 6595 2cbe
00000310: d27e f4bd 3752 33be 6141 4d3e cf9e a9bd
00000320: 0c6a e83d bee5 59be fa09 2cbe e9b7 033e
00000330: b360 40be 8e1e 46be 54af d43d 4f92 dcbd
00000340: c74e bcbd 6bfb 413e e57e 393e d623 4f3e
00000350: c497 19be 5a23 de3b 4276 303e 7278 df3d
00000360: 1e38 3ebe 8e89 e63d aa96 573e ef01 40be
00000370: d592 59be 66f0 98bd 2d7e 28be d2e1 08be
00000380: 1030 3dbe 75cb 3cbe 87a1 42be c7b7 43be
00000390: b9c2 1dbe 9946 38be 01a2 4c3e a6ef 4dbe
000003a0: 6919 36be 45e4 cdbd b740 3a3e f597 f93d
000003b0: 0c27 283e b22f cfbd 13d4 033e 5092 f93d
000003c0: 93a1 37be 5033 c13d b3c1 01be bc1d 503e
000003d0: c0fc 0f3e 6a0d 343e aeb7 db3d 136e bbbc
000003e0: 8c27 e03d b117 593e fa35 46be c902 22be
000003f0: 9d99 40be d8e8 00be fbe7 3dbe 3743 0fbe
-0.17317182 0.13063206 -0.15489511 -0.21547937 -0.068430215 -0.10849729 -0.13101482 -0.19985034
-0.12914929 -0.17198204 -0.18871866 -0.15011202 0.078771636 0.09383946 -0.18368436 -0.20544612
0.116768524 0.09813535 0.12835678 -0.17547213 -0.08747827 -0.17634965 0.16830535 -0.19726472
-0.1230894 0.1815822 -0.13430026 -0.19180956 0.20323619 0.1871774 -0.16546461 -0.1861433
0.20344537 -0.17741 0.13546924 -0.1055263 0.20003489 -0.1686229 -0.1895609 0.12833227
-0.18829736 -0.16096194 -0.19692443 -0.17401455 0.17725669 -0.18017504 0.08702018 -0.18625812
-0.13658574 -0.09348921 0.14356568 0.096375525 0.05179058 -0.19536787 0.1338533 0.15977858
0.20513304 -0.116744146 -0.13308322 0.12670627 -0.1723415 0.19309308 -0.0916466 0.12683763
-0.21149002 0.12863196 0.1015197 0.069482036 -0.13955304 0.17961541 -0.14213076 0.15696225
0.14881994 0.17913786 -0.12171238 0.17881404 0.19118416 0.123165846 0.14561142 -0.0763251
-0.19890067 -0.18124777 -0.1701321 -0.15146133 -0.18145202 0.10847554 0.16140352 -0.16775951
-0.20348537 0.060358234 0.19374052 0.16005908 -0.21348795 -0.11917759 0.1814291 0.15557921
-0.15614963 0.13995343 0.20789403 -0.14908831 -0.18950164 -0.19973996 0.13037415 -0.207562
0.12471459 -0.15386385 -0.16064653 -0.15840738 0.17863831 -0.19127755 -0.20548809 0.100182585
-0.17644969 0.104113355 0.18754767 -0.12112479 0.18767743 0.19825329 0.0983451 0.17107175
-0.18327634 0.101773866 -0.19109632 0.15040155 -0.14725484 0.16358739 -0.116692364 0.09753802
0.03861079 0.095840424 -0.17704599 0.17360708 -0.18064755 0.20607184 -0.039423935 0.1043018
-0.20022519 0.11136705 0.0917431 -0.20051293 0.10794151 0.03869161 -0.17771251 -0.18380207
0.19829224 -0.122897275 0.17448644 0.10739083 0.19363078 -0.11207617 -0.10692002 -0.118211046
0.18312615 -0.18978949 -0.15088227 -0.19513495 0.10307569 -0.15203285 -0.105732836 0.11126477
0.19711055 -0.17802139 0.099561535 0.19797777 -0.011289376 -0.21489193 0.19877833 -0.16054462
-0.19030301 0.20529622 0.11461112 0.18505974 -0.21088092 0.19559741 -0.17801623 0.0997841
-0.15940359 0.12838535 -0.1917909 -0.11551956 -0.18220095 0.07585605 -0.09563605 -0.134311
0.12225636 -0.20218445 0.08670588 0.19529381 0.11795894 0.10980645 -0.057083584 -0.11154366
0.10774047 -0.11823144 -0.18274094 -0.16853864 -0.119382516 -0.17511831 0.20044471 -0.082822435
0.11348352 -0.21279046 -0.16800681 0.12863125 -0.18786888 -0.19347593 0.10385004 -0.10770094
-0.09194713 0.18943565 0.18114813 0.20228514 -0.149993 0.0067791166 0.17232612 0.10911645
-0.18576095 0.11256705 0.21053568 -0.18750738 -0.21247418 -0.07467727 -0.16454382 -0.13367394
-0.18475366 -0.18436988 -0.1900693 -0.19113074 -0.15406312 -0.17995681 0.19983675 -0.2011095
-0.1778313 -0.100533046 0.18188749 0.12187187 0.16421145 -0.10116519 0.12873869 0.1218611
-0.1793273 0.09433615 -0.12671547 0.20323843 0.1406126 0.17583242 0.107283935 -0.022879636
0.10945043 0.21200444 -0.19356528 -0.15821375 -0.18808599 -0.12588823 -0.18545525 -0.13990484
