weights/mnist/qat/quant_2fc_2bits_mnist_plain_4bits_weights.pth (torch, 412203 bytes, 2 tensors)

fc1.weight f4 [128, 784]
0	0x3cc09dea	0.0235128
1	0x3bd9f953	0.006652036
2	0xbd0ee76f	-0.03488868
3	0xbcb8075c	-0.022464447
4	0xbad0a801	-0.001591921
5	0xbb2a4c5c	-0.0025985455
6	0xbca8050a	-0.020510215
7	0x3c5d042e	0.013489766
8	0xbc51e0d3	-0.01280995
9	0xb925224a	-0.000157484
10	0x3c8030bc	0.015648238
11	0xbca83da0	-0.020537198
12	0xbd585994	-0.052819803
13	0xbd5ff024	-0.054672375
14	0xbc59be76	-0.013290038
15	0xbceb18e8	-0.0286984
16	0xbd039d84	-0.03213264
17	0xbcbeefc7	-0.023307694
18	0xbcb0b485	-0.021570453
19	0x3c087677	0.0083290255
20	0x39aed093	0.00033343266
21	0xbc2b9a8e	-0.01047386
22	0xbc18294e	-0.009287192
23	0xbcf7c95e	-0.030247387
24	0x3acc01dc	0.0015564519
25	0x3ae3e36e	0.0017386505
26	0x3cd48b95	0.025945464
27	0x3cfbf4f1	0.030756446
28	0xbc1bfc6a	-0.009520629
29	0x3a65e7b8	0.00087701855
30	0xbcc7dcee	-0.02439734
31	0xbb9eea25	-0.0048496895
32	0x3be75dd3	0.0070607453
33	0x3cacf74c	0.021114014
34	0xbe5a1ca6	-0.21299991
35	0xbe433a4b	-0.19065206
36	0xbe0712ec	-0.13190812
37	0xbaba9086	-0.0014233745
38	0xb9c67778	-0.00037854514
39	0xbd5acebc	-0.053419814
40	0xbd84c210	-0.06482327
41	0xbbb0301a	-0.005376828
42	0x3e7bcd47	0.24590026
43	0x3e84bd1e	0.25925535
44	0xbe0ecc31	-0.1394508
45	0x3e4c1d4f	0.19933055
46	0xbd5ca63c	-0.05386947
47	0xbd5375ef	-0.051626142
48	0xbd1b19bc	-0.03786634
49	0xbe799d5e	-0.24376437
50	0xbe9985a9	-0.29984787
51	0xbc394725	-0.011308466
52	0xbba8168a	-0.00512964
53	0x3c9c477c	0.019077055
54	0x3c36d4b3	0.01115911
55	0x3b953165	0.0045530074
56	0xbce547fa	-0.027988423
57	0x3c3cfbdc	0.011534657
58	0xbd0c673f	-0.03427815
59	0xbc73f965	-0.014891003
60	0x3b8deb07	0.004330996
61	0xbd10bf23	-0.035338532
62	0xbcfcccb5	-0.03085933
63	0xbdff78aa	-0.12474187
64	0xbe018882	-0.1264973
65	0xbe99856f	-0.29984614
66	0xbe074af5	-0.13212188
67	0x3e19ba3c	0.15012449
68	0x3e8a3b32	0.26998287
69	0x3df69d98	0.12041777
70	0xbe8209b0	-0.25398016
71	0x3e4f267b	0.20229523
72	0x3eb6a737	0.3567445
73	0x3e89ea95	0.26936784
74	0x3e9a23be	0.30105394
75	0x3e5d0845	0.21585186
76	0x3dcff7f8	0.10154718
77	0x3e174cfd	0.14775462
78	0xbe119b37	-0.14219366
79	0xbe9efada	-0.3105076
80	0xbe054169	-0.13013233
81	0xbc9c19df	-0.019055305
82	0x3c15fd3c	0.009154614
83	0xbcc7e5d3	-0.02440158
84	0x3bd8fdb7	0.006622042
85	0xbc6c81d8	-0.014435254
86	0xbcf3bc19	-0.029752778
87	0x3a952a29	0.0011380363
88	0x3e31ef0c	0.17376345
89	0x3e87ef17	0.265496
90	0x3da3254b	0.079660974
91	0xbdbca454	-0.092110306
92	0xbf1a72cb	-0.6033141
93	0xbe7c7b61	-0.2465644
94	0xbf46f2df	-0.7771434
95	0xbf0bf3b2	-0.54668725
96	0xbf16220e	-0.58645713
97	0xbeba2398	-0.3635528
98	0x3de4be24	0.11169079
99	0xbe03d010	-0.12872338
100	0x3e29d35f	0.16584538
101	0x3ea00d05	0.31259933
102	0x3f50a73e	0.8150519
103	0x3efaed77	0.49009296
104	0x3d66fca8	0.056393296
105	0x3d890643	0.066906475
106	0x3ede4943	0.4341527
107	0x3e2cf00d	0.16888447
108	0x3e07f3fe	0.1327667
109	0xbe1d2ac4	-0.15348345
110	0x3c6d93bc	0.014500555
111	0xbc9ea67c	-0.019366495
112	0xbc553aca	-0.013014505
113	0x3bcb7b01	0.0062097316
114	0xbbd6b995	-0.006552885
115	0xbc1ea400	-0.009682655
116	0x3a051cbe	0.000507783
117	0x3e201cd1	0.15635993
118	0xbe256e54	-0.16155368
119	0x3ed320a2	0.41235834
120	0x3e86c346	0.26320857
121	0xbe0cd01f	-0.13751267
122	0xbe15c8d0	-0.14627385
123	0xbdd0454c	-0.10169467
124	0x3e3ff6a6	0.18746433
125	0x3e8ef6cf	0.27922675
126	0xbdca0ab6	-0.09865324
127	0xbe17aad1	-0.14811255
128	0x3ede93dc	0.43472183
129	0xbe44d7fe	-0.1922302
130	0xbef4e5ce	-0.47831577
131	0x3ebe5e73	0.37181434
132	0x3e7d13ec	0.24714631
133	0xbe36aa86	-0.17838487
134	0xbeef820f	-0.46778914
135	0x3e781f70	0.24230742
136	0x3f32556d	0.696616
137	0x3ebe846b	0.37210402
138	0x3eb2cf3a	0.34923726
139	0x3c91cdfc	0.017798416
140	0xbc4ac84a	-0.012376854
141	0xbcee4c75	-0.029089192
142	0x3d3f61ce	0.046724133
143	0xbdae2c5f	-0.08504557
144	0xbdadd3c5	-0.084876575
145	0x3e80310e	0.25037426
146	0x3defd3c9	0.11710317
147	0x3ecb24d3	0.39676532
148	0x3f0ab08c	0.5417564
149	0x3e41e142	0.18933585
150	0x3dc3f0fc	0.095674485
151	0x3e7427d0	0.23843312
152	0x3e09a103	0.13440327
153	0xbeda8c34	-0.42685091
154	0x3dc29d25	0.09502629
155	0x3f1fe3a8	0.6245675
156	0x3f4bf5c5	0.7967189
157	0x3efe2b02	0.49642187
158	0xbeefc1bb	-0.46827492
159	0xbd05aeb0	-0.032637298
160	0xbd2958b3	-0.041344356
161	0x3ca0d997	0.019635005
162	0x3e774c6d	0.24150248
163	0x3dc62cb9	0.09676499
164	0x3ea7bf25	0.3276302
165	0xbe1948d7	-0.14969192
166	0xbdf50bef	-0.11965167
167	0x3cb68902	0.022282127
168	0x3cb9f2ac	0.022698723
169	0x3cc34155	0.023834864
170	0x3d5c20da	0.053742267
171	0xbf20079f	-0.6251163
172	0x3f2b9cbc	0.6703603
173	0x3e84c12b	0.25928625
174	0x3f2e12db	0.6799752
175	0xbd0ea527	-0.03482547
176	0xbe30eda1	-0.17278148
177	0x3f6ae07f	0.91748804
178	0x3e8e4814	0.27789366
179	0xbbb0017b	-0.0053712702
180	0xbf2c70fd	-0.67359906
181	0xbf0b1625	-0.54330665
182	0xbf355e35	-0.70846874
183	0xbd2d3e58	-0.042295784
184	0x3d2d434b	0.042300504
185	0x3e7a9c07	0.24473582
186	0xbf2244f5	-0.6338647
187	0xbe5f2f8a	-0.21795478
188	0x3e96c5d1	0.29447797
189	0xbe569c36	-0.20958027
190	0x3f1ba7c2	0.60802853
191	0x3f5abd8b	0.8544547
192	0x3dfd3a3c	0.12364623
193	0xbf2171fc	-0.6306455
194	0xbded38d0	-0.11583102
195	0xbe07ac83	-0.13249402
196	0x3cd8e16e	0.02647468
197	0x3c04d3ca	0.008107135
198	0xbe171dbf	-0.14757441
199	0x3b4e096d	0.0031438724
200	0xbda22d54	-0.07918802
201	0x3e4d69d9	0.20059909
202	0xbd37378f	-0.04473072
203	0xbeb43bfd	-0.35202017
204	0x3c7d30a2	0.0154534895
205	0x3ea9f41f	0.33194062
206	0x3ec38c17	0.38192818
207	0xbdc8408d	-0.09777937
208	0xbe87bd9e	-0.26511854
209	0xbf7dd173	-0.9914772
210	0xbf12ff62	-0.57420933
211	0xbdf26c5f	-0.118370764
212	0xbeb2a77e	-0.3489341
213	0xbf42fb53	-0.7616474
214	0xbf8afd3e	-1.0858533
215	0xbd5d9273	-0.054094743
216	0x3d181210	0.0371266
217	0xbf3e0c17	-0.742372
218	0x3d359a4b	0.0443366
219	0x3f380ac0	0.71891403
220	0x3f029112	0.5100261
221	0x3e9e60f4	0.30933344
222	0x3ee54c42	0.44784743
223	0xbe76060c	-0.24025744
224	0xbc104874	-0.008806337
225	0xbdbb8d14	-0.09157768
226	0xbd9b9da1	-0.07598425
227	0x3dd59a4c	0.104298204
228	0x3e954c2f	0.29159686
229	0x3e8e3dd3	0.27781543
230	0xbe442f36	-0.19158635
231	0x3d9f77b6	0.07786505
232	0x3dd47260	0.10373378
233	0x3f284393	0.6572811
234	0xbe050154	-0.12988788
235	0xbe04d521	-0.12971927
236	0xbed33da5	-0.4125797
237	0xbf40ce0d	-0.7531441
238	0xbee93bac	-0.4555334
239	0xbd5c6dba	-0.05381558
240	0xbd01a7ac	-0.031654045
241	0xbf19d916	-0.6009687
242	0xbf436113	-0.7632
243	0xbe2c3e69	-0.16820683
244	0x3f10240b	0.56305
245	0xbeca43b2	-0.39504772
246	0x3e862d64	0.26206505
247	0x3ec70d13	0.38877162
248	0x3efac93a	0.4898165
249	0x3f355e4b	0.70847005
250	0x3d86408a	0.065552786
251	0xbd29e83e	-0.04148125
252	0x3c90c024	0.017669745
253	0xbcc48f6f	-0.023994176
254	0x3e6f4411	0.23365809
255	0x3ed62e26	0.41832083

fc2.weight f4 [10, 128]
0	0x3d75cca2	0.060009606
1	0x3e942271	0.28932527
2	0x3dfb711a	0.12277432
3	0x3e7f40e7	0.24927102
4	0x3e07dc9c	0.1326775
5	0xbe155d55	-0.14586385
6	0x3e0120dc	0.12610191
7	0xbe46c988	-0.19412816
8	0xbf10ca0c	-0.565583
9	0xbde84cd3	-0.11342778
10	0xbeefbea4	-0.46825135
11	0xbf0407b2	-0.5157424
12	0xbec31e64	-0.38109124
13	0x3ea7dd02	0.32785803
14	0x3ed1e284	0.4099313
15	0x3e435842	0.19076636
16	0xbec0cc1b	-0.3765572
17	0x3d55f405	0.05223467
18	0xbcbb1c5a	-0.022840668
19	0x3e7b3f73	0.24535923
20	0xbd259335	-0.04042359
21	0x3e6b8090	0.22998261
22	0x3e04d8c3	0.12973313
23	0xbef258b1	-0.4733329
24	0xbeabdd8b	-0.3356746
25	0x3e809d7a	0.25120145
26	0x3d8a46ae	0.06751762
27	0x3e941953	0.2892557
28	0x3edc6362	0.43044573
29	0xbf06936c	-0.525687
30	0xbf105db6	-0.5639299
31	0xbe7de49e	-0.24794242
32	0xbe863b1d	-0.26216975
33	0x3edbaae5	0.4290382
34	0xbe98303d	-0.29724303
35	0xbeb6faaf	-0.3573813
36	0x3e25529a	0.16144791
37	0xbdf1942f	-0.11795842
38	0x3da90dd9	0.08254594
39	0x3cb47685	0.02202917
40	0xbed35180	-0.41273117
41	0xbdf52a58	-0.11970967
42	0x3db5a510	0.08869374
43	0xbed57fa5	-0.41698948
44	0x3d9e5e20	0.07732797
45	0x3c1466db	0.009057726
46	0x3dbcea25	0.09224347
47	0xbe164636	-0.14675221
48	0x3d24f872	0.040276
49	0xbe4b6841	-0.19863988
50	0x3e4c0808	0.19924939
51	0x3f0ac8b7	0.54212517
52	0xbe4bfcc9	-0.19920649
53	0xbe2507dd	-0.16116281
54	0xbebd284e	-0.36944813
55	0x3ee4affd	0.44665518
56	0xbd32234b	-0.04349069
57	0xbf1b6ebd	-0.6071585
58	0x3d86fd64	0.06591299
59	0xbd9b3dbf	-0.075801365
60	0xbef4beca	-0.4780181
61	0x3ea962b5	0.3308312
62	0x3d934437	0.07190745
63	0x3ee756b4	0.45183337
64	0xbe950697	-0.2910659
65	0xbdbbe9c3	-0.09175446
66	0x3da03c01	0.07823945
67	0xbf151da4	-0.58248353
68	0x3e802609	0.2502902
69	0x3f14ae98	0.5807891
70	0xbeab3b49	-0.33443668
71	0xbecc6f79	-0.39928797
72	0xbe7512f1	-0.23933007
73	0x3e8119c1	0.2521496
74	0x3eb3aec6	0.3509428
75	0xbeeeee55	-0.46666208
76	0x3e314343	0.17310815
77	0xba9884b3	-0.0011636227
78	0xbf0882d8	-0.5332465
79	0x3e5cf978	0.2157954
80	0xbcc93449	-0.024561064
81	0x3e884f82	0.2662316
82	0xbe698f17	-0.2280849
83	0x3e01441c	0.12623638
84	0xbea9f183	-0.3319207
85	0x3e30e020	0.17272997
86	0xbf00f795	-0.5037778
87	0xbe9cba39	-0.30610827
88	0x3e0a79fa	0.13523093
89	0xbe3a7272	-0.1820772
90	0x3e4e2b8f	0.20133804
91	0xbe2c4593	-0.16823415
92	0x3e380f15	0.17974503
93	0x3e5b93a8	0.21443045
94	0xbd8be40c	-0.06830606
95	0xbe6d9550	-0.2320149
96	0xbf156d9d	-0.5837038
97	0x3ebc2c33	0.3675247
98	0x3dd542a4	0.10413101
99	0x3d3c6090	0.045990527
100	0x3e93563c	0.2877673
101	0xbe074b7c	-0.13212389
102	0x3ed55108	0.41663384
103	0x3e0206a4	0.12697846
104	0x3c49b344	0.012310807
105	0xbf0db250	-0.5535021
106	0x3eca3f99	0.39501646
107	0xbf1026b1	-0.5630904
108	0x3e825585	0.2545587
109	0x3b826c59	0.003980201
110	0x3df00550	0.11719763
111	0x3e9736dd	0.29534045
112	0x3ebb40e2	0.3657294
113	0xbef51732	-0.4786926
114	0xbe01cfbe	-0.12676904
115	0xbef6b755	-0.48186746
116	0xbf036fce	-0.51342475
117	0xbf16ab1a	-0.5885483
118	0x3ecbb85c	0.39789093
119	0xbe15d919	-0.14633597
120	0x3e8d99d5	0.27656427
121	0x3da3e387	0.08002382
122	0x3e6d44f1	0.2317083
123	0xbe211dac	-0.15733975
124	0xbf135905	-0.5755771
125	0xbf020387	-0.5078663
126	0xbe4b7b77	-0.19871317
127	0x3daac93a	0.08339162
128	0xbddcd585	-0.10782913
129	0x3eb48006	0.35253924
130	0xbe43824b	-0.19092672
131	0xbeb9205c	-0.361575
132	0x3e9c2e21	0.30503944
133	0x3dac0a33	0.08400383
134	0x3f042666	0.5162109
135	0x3ed0e27e	0.407978
136	0x3eacaa7f	0.33723828
137	0x3e6f71c1	0.23383237
138	0xbecd215c	-0.40064514
139	0xbee49bfd	-0.4465026
140	0xbd83e9f6	-0.06441109
141	0xbc42ba50	-0.011885241
142	0x3dc304dc	0.09522411
143	0xbeae93c7	-0.3409712
144	0x3ea96797	0.33086845
145	0x3e4bac98	0.19890058
146	0x3e112ced	0.14177294
147	0xbea452a6	-0.32094306
148	0x3e816772	0.25274235
149	0x3e188eed	0.14898272
150	0x3dbf09e3	0.093280576
151	0x3e99cfac	0.30041254
152	0x3f033aee	0.51261795
153	0x3e67ef53	0.22649889
154	0xbead78b5	-0.33881155
155	0x3df53ff2	0.11975087
156	0x3e06a988	0.13150609
157	0xbdfe6355	-0.1242129
158	0xbe56b82b	-0.20968692
159	0xbee390b4	-0.44446337
160	0x3ef9edb2	0.4881416
161	0x3db40ce1	0.08791519
162	0xbf0a541d	-0.54034597
163	0xbe54da1b	-0.20786326
164	0xbf0bdf85	-0.5463794
165	0x3dddeeee	0.10836588
166	0xbecb503e	-0.39709657
167	0x3e6d290a	0.23160186
168	0xbf029c21	-0.51019484
169	0xbf0cd882	-0.55017865
170	0x3e630f31	0.22173764
171	0xbef73594	-0.48283064
172	0xbe806579	-0.25077417
173	0x3f08c508	0.53425646
174	0xbeffec2b	-0.4998487
175	0x3d6e7641	0.058218244
176	0x3ef8015d	0.4843854
177	0xbee231b0	-0.44178534
178	0xbe1cea86	-0.15323839
179	0xbe7ee5f7	-0.24892412
180	0x3eba129d	0.36342326
181	0xbdbba5e6	-0.09162502
182	0xbdc24495	-0.09485737
183	0x3d3af3cc	0.04564266
184	0x3e89ad07	0.26889822
185	0xbf0d6e22	-0.55246174
186	0xbe2ca103	-0.16858296
187	0x3d62d726	0.055380963
188	0xbedd45ea	-0.43217403
189	0xbf0e18e5	-0.55506736
190	0x3cda6199	0.026657866
191	0xbddd672e	-0.108106956
192	0x3ee8f445	0.45498863
193	0xbe863cee	-0.2621836
194	0xbf15b5bc	-0.5848043
195	0xbe8c71f2	-0.27430683
196	0xbf05cad1	-0.522626
197	0xbebd0641	-0.36918834
198	0xbedd0526	-0.4316799
199	0x3e8c5a81	0.274128
200	0x3ea340e5	0.31885448
201	0xbea03ec2	-0.3129788
202	0xbf0d7b2c	-0.5526607
203	0xbf04798c	-0.51747966
204	0xbeff3f59	-0.49853018
205	0xbec99b83	-0.3937646
206	0x3ee3f969	0.44526222
207	0xbe0d934f	-0.13825725
208	0x3e864247	0.2622244
209	0x3c3a6f9a	0.011379147
210	0x3e8d20e5	0.2756416
211	0x3e92d008	0.2867434
212	0x3dc95406	0.09830479
213	0x3dd8575a	0.10563536
214	0xbf076dae	-0.5290173
215	0xbec5df1f	-0.3864679
216	0xbf153515	-0.5828412
217	0x3eaa73ea	0.3329156
218	0xbed90287	-0.4238474
219	0xbde421dc	-0.11139271
220	0xbed2a553	-0.41141757
221	0xbf181b26	-0.59416425
222	0x3f1364dd	0.5757578
223	0x3e454ec4	0.19268328
224	0xbf0262e3	-0.5093214
225	0x3e30e4df	0.17274807
226	0xbe1a3c79	-0.15062131
227	0xbea92965	-0.33039394
228	0xbf115a06	-0.5677799
229	0x3ed02dd7	0.40659973
230	0x3ebf9af1	0.37422898
231	0xbf0a68a0	-0.54065895
232	0x3da0a370	0.07843673
233	0xbd69ba9e	-0.057062738
234	0x3e0c9301	0.13727953
235	0xbf033594	-0.5125363
236	0x3e8dec38	0.27719283
237	0xbf11afbd	-0.5690878
238	0x3e0b00fc	0.13574594
239	0xbe1a30df	-0.15057705
240	0x3e8216e3	0.25408086
241	0x3e0a62ba	0.13514224
242	0x3d3add3e	0.04562115
243	0x3e2fc2f6	0.17164215
244	0xbb42c621	-0.0029720145
245	0xbf151f29	-0.5825067
246	0xbedf7ab8	-0.43648314
247	0x3e965a4a	0.2936576
248	0xbf18eef7	-0.5973963
249	0xbf1473ab	-0.57988995
250	0xbf01bc94	-0.5067837
251	0x3ebd7659	0.37004355
252	0x3e146f7b	0.14495651
253	0x3d3409f7	0.043954816
254	0xbee1ffc6	-0.44140452
255	0x3e95bc99	0.2924545
