weights/mnist/qat/quant_fc_2bits_mnist_plain_3bits_weights.pth (torch, 412203 bytes, 2 tensors)

fc1.weight f4 [128, 784]
00000000: 0084 a9ba f5a3 8c3c 9ef4 e03c 4ad2 a4b9
00000010: 4aa3 4bbc 8e22 d23c 7e01 a0bc 57e8 cebc
00000020: f5bc 113d 8347 8abc 411f f4bc 7b21 073d
00000030: 9095 9abd d0ad 5dbd 8583 293b b0a2 a63c
00000040: 619c 703c 3a0e 80bc b849 eab9 053f 313c
00000050: 9191 d73c 36eb 073d b5ef bcbc fc45 45bc
00000060: eef4 e93b 25a5 b039 aa8c d1bc 20ba 063c
00000070: 6a06 45bc c0ab 833c c13b b9bc 2ab3 c0bc
00000080: c369 ac3c aa76 e5bc ac15 d2bd 1346 fdbd
00000090: ce7a 2d3c f927 edbc 01af 89bd 2d44 dfbd
000000a0: dc34 13bd a84f 3c3c d6ca 083e 701f ddbd
000000b0: 673f f8bc d8cd cabd 1048 17bd 4b48 91bd
000000c0: bcdc f7bc 75d9 71be 8783 84be a57c 46bc
000000d0: 8007 0cbb 0ad0 2dbc 4a63 55bb 4023 18bc
000000e0: 2e90 37bc 535d 993c 6e26 bebc 5e16 b13c
000000f0: 911c dabc 452e 38bc 1c72 62bd 7745 c6bd
00000100: 4b73 09be bed4 0abe 2223 95be a76b 96be
00000110: e537 19bf 33b7 3dbf 6756 16bf 8000 323d
00000120: 150f 0e3c 2235 9b3e 83bf 813e df14 743e
00000130: 61d4 24be f6e3 b53d 4a63 c6be f24a 91be
00000140: 8029 bfbd 06f2 21bd d1ff e73c f363 3d3c
00000150: ee49 28bb 13c0 00bb fe1e 53ba 441f 443c
00000160: 1889 373d d26f 34be 4823 2abe 350c 23bd
00000170: 6bff 273e 99dd 6b3e 6e83 8d3d 3623 fbbd
00000180: df7d 62be e712 e3be ddcc 9c3d 2ebc 8fbd
00000190: 077c 83be fabb e9be 6e5b f63d 4e22 653f
000001a0: 6a1a 183f 7dc8 1a3e 77c0 ef3c e857 5b3e
000001b0: 1781 eb3e 6b2e 483e 939e e03b 0a44 10bd
000001c0: 9352 abbb b30c 423c b87c 913e df4f 933c
000001d0: 7270 923d 0717 803e ad68 aebe 3dd7 80be
000001e0: 58af 04bd 13e0 4bbf ec73 3dbc 3de0 0d3f
000001f0: dd73 e53e b026 b33c 852c 20be 86f9 23bf
00000200: 8cc5 5b3e 98da 433e b0cd e03e 2b3c 863e
00000210: c2f3 6abd ea8c 093f 05c3 2fbe 7069 a2bb
00000220: a71a 1a3e 41f3 743e e70e 793e 3a46 923c
00000230: ceb5 c5bc 488a df3c 9213 65bc 4e9f c8be
00000240: 6706 163f cf6b 563f be3c 1f3f f41c 433e
00000250: 823e e63e 9438 ba3e ecff 683c 159a d63e
00000260: 746d 463e bb79 09be ed0f e4bd 66e8 acbe
00000270: 40af 783f 9ac2 fc3c b542 9b3e f0e0 01bf
00000280: 5153 8cbe 56e1 633e dd1b b1bd 8e83 46be
00000290: f62f 93be 8034 163f c2a8 153d b396 e63d
000002a0: 65dd 2e3c 13de 0cbc 7dc9 a8bd 6306 693e
000002b0: a56f bbbe 20be 1b3f 4575 bd3e bce1 3e3f
000002c0: 1e3c 203f 16f0 90be f5d4 b73e 39aa 6f3f
000002d0: e4d6 393e 21fd c43e 2de5 8a3e 71e8 803e
000002e0: 8f19 683e 4f33 eebd 3662 e1bc a817 86be
000002f0: 4c8a 283d de72 e0bd 98e9 643e b54b 2dbe
00000300: 4e84 c5be 15fb dd3e 4e2c 8d3d a730 2d3e
00000310: 1759 b1bc 4cc4 f73d d027 883e 6a3c 5a3e
00000320: 1ada 8e3c 9e18 11bf cb2e 25bf c03a e7be
00000330: abed b4be 7fa6 5ebe d161 fc3e dfe2 a53e
00000340: 673e 90be 11bc ed3d 5d1d a7be fce1 76bc
00000350: 7bd5 7e3d 8e63 b2be ebcf d2be 7b0e e1b9
00000360: 8327 183f 0e31 323e aa8a 663f 58b3 18be
00000370: 5fb5 b83e 546f a23e d07b 8239 cd0e 353e
00000380: ffa6 3c3c a6ea e13d 349b bd3e ddf5 443e
00000390: 2a92 4dbe 7395 c2bd 1e88 36be d327 12bf
000003a0: 88f6 1abf a7f8 383e db0b 973d 9b12 fd3c
000003b0: 4567 99be 5991 273e 6592 ef3e 1efd 693e
000003c0: 108d 8e3d f40e 52be 899e 80bd 0f38 f13d
000003d0: 78d7 26bf 403c 443e 1e00 833e 061b 903e
000003e0: e24b 033f b5a5 333f 0757 34be f9d8 fc3d
000003f0: 34ff e63d bf2c 273e a5f1 6e3d 7c41 a5be
-0.0012933016 0.017168025 0.027460393 -0.00031437195 -0.012429068 0.025651243 -0.019531962 -0.025257273
0.035580594 -0.016879803 -0.02980006 0.032990914 -0.07548058 -0.05412084 0.0025865745 0.020341247
0.014685721 -0.015631784 -0.00044686883 0.010818248 0.026314529 0.0331833 -0.02306352 -0.012040611
0.0071397936 0.00033692378 -0.02557977 0.008223087 -0.012025455 0.016073108 -0.0226115 -0.023522932
0.021046525 -0.028010685 -0.1025804 -0.12366881 0.010588361 -0.028949725 -0.067228325 -0.109016754
-0.035939083 0.011493601 0.13358626 -0.10797012 -0.03030367 -0.09902543 -0.03693396 -0.07093867
-0.030256622 -0.2361811 -0.25881597 -0.0121146785 -0.0021366775 -0.010608682 -0.0032560402 -0.009285748
-0.011203809 0.018721258 -0.023211684 0.02161711 -0.02662495 -0.0112415 -0.055284604 -0.09681218
-0.13422887 -0.13557717 -0.29128367 -0.29379007 -0.59850913 -0.74107665 -0.5872559 0.043457508
0.008670588 0.30313975 0.25341424 0.23836087 -0.16096641 0.08881371 -0.38747627 -0.2837749
-0.09334087 -0.039537452 0.028320225 0.011559474 -0.002567883 -0.0019645735 -0.00080536294 0.011970345
0.044808477 -0.17620781 -0.16615021 -0.039806563 0.16406028 0.23033752 0.06909834 -0.12262575
-0.22118329 -0.4435036 0.07656262 -0.07018314 -0.25680563 -0.45651227 0.120291576 0.8950547
0.59415305 0.15115543 0.02926658 0.21420252 0.45996925 0.19548957 0.006854841 -0.035221137
-0.0052283495 0.011843848 0.28415465 0.017982421 0.071503535 0.25017568 -0.34064236 -0.25164214
-0.032393783 -0.79638785 -0.011563282 0.55420285 0.4481496 0.021869034 -0.15641983 -0.6405262
0.21462077 0.19126356 0.43906927 0.2621778 -0.05736137 0.5373064 -0.17164238 -0.004956417
0.1504923 0.23920919 0.24322091 0.017855752 -0.024134543 0.027287617 -0.013981717 -0.3918404
0.5860352 0.8375825 0.6220206 0.19054013 0.44969565 0.3637129 0.014221173 0.4191443
0.1937769 -0.13425343 -0.1113585 -0.33771056 0.9714241 0.030854512 0.3032433 -0.5073385
-0.27407315 0.22253928 -0.086478926 -0.19386122 -0.2874753 0.5867386 0.036537893 0.11259212
0.010672902 -0.0085978685 -0.08241556 0.22756343 -0.36608616 0.6083698 0.37003532 0.74563193
0.6259173 -0.2830817 0.3590466 0.93619114 0.1814838 0.38474372 0.27127972 0.2517734
0.22666 -0.1163088 -0.027512651 -0.26189923 0.041147515 -0.10959409 0.22354734 -0.16923411
-0.38577503 0.43355623 0.06893216 0.1691309 -0.021648927 0.120979875 0.26592875 0.21312109
0.017437983 -0.5667819 -0.64524525 -0.4516201 -0.35337576 -0.217432 0.49293378 0.3239965
-0.2817261 0.116081364 -0.3263959 -0.015068527 0.06221531 -0.3484158 -0.41174254 -0.00042926133
0.5943529 0.17401525 0.90055335 -0.14912164 0.36075875 0.31725562 0.0002488778 0.17681427
0.011514424 0.11031084 0.37032473 0.19234414 -0.20075288 -0.095011614 -0.17825362 -0.57092017
-0.60532427 0.18063603 0.07375308 0.03089266 -0.299616 0.1636404 0.46791378 0.22850463
0.06960499 -0.20513517 -0.06280238 0.117782705 -0.6517253 0.19163609 0.25586027 0.28145617
0.51287663 0.70174724 -0.17611323 0.12346072 0.11279145 0.16325663 0.05833592 -0.32276523

fc2.weight f4 [10, 128]
00000000: 6d05 cf3d 55d9 c63e a6d5 733e 3bd0 65be
00000010: 21c9 8b3d 112b 8bbd d54e b0be 00e4 c4be
00000020: 7800 753e 5fae c03e 0c7d cebe 2fd5 c43d
00000030: b4cb e4be fac4 c9be 20e9 aabe f8a1 b2be
00000040: e5bf 283e 1c3b 5e3d 51c4 dbbe 0fe5 dbbe
00000050: 5193 14ba 4772 c63e bafb c63d b191 e1be
00000060: 2d66 263e 1222 d73e 8c67 da3e 0f64 d4be
00000070: e06a 6a3e cf51 473e 6070 12be f535 43be
00000080: 6150 783e a50d b7bd 924a bcbe 7358 debe
00000090: 5322 cf3e ad75 1f3e f1e6 d8be 6228 d1be
000000a0: e5b3 d13e 4271 edbd 2861 88be 0534 ca3e
000000b0: 4ac1 dbbe 17d9 cd3e 05bc 65be dd37 a4be
000000c0: a79c 893e eb52 cc3e ecfc cb3b d218 893e
000000d0: c60c 42be c84c 913e 91f7 87be 791a 513e
000000e0: bb56 bbbe f37c 98be 9056 a93e d75c ad3e
000000f0: f6d4 bb3e d986 dbbe 009f 6d3e d757 8b3e
00000100: 94a4 203d 6caa e8be 9667 d2be 762a c7be
00000110: 7eaf 9bbe 884b 03bd 86da c83e 00a8 c2be
00000120: 1dd6 5e3e 9ca3 25be 786d e0be 8aa9 c33e
00000130: b1f4 b83e 07d6 a9bd 029b 37bc 2627 cb3e
00000140: 4887 ddbd a60f d13e 43b0 d03e 7cba c8be
00000150: 5783 333e 3b9b aebe ae9a c7be fc3c de3c
00000160: deaf 933d ea81 bc3e 2a06 08be b481 cc3e
00000170: 50bb c7be 3e89 debe 06cb 94bd be0e 8f3e
00000180: be8d b9be a3e0 b8be d21a 13be 1827 d23e
00000190: ba96 c1be b4a3 a5bd d20d d1be e971 333c
000001a0: aef9 5dbe 65d5 8dbe 71ed 6ebd c469 c7be
000001b0: b2ae d53e 0629 c5be f946 b1be a5e6 29be
000001c0: 9623 c53e d5b2 21be b8ac 783c ac87 e5be
000001d0: 4e5d 903c 078c 3f3e 7548 c03e d14f dfbd
000001e0: 25fd d53e aa5e b83e 5b66 873e edcd de3e
000001f0: 5287 bbbe c161 913d 54ea 90be 6540 a7bd
00000200: cf15 dabe 8ce8 b2be ac3d debe 58e5 aa3e
00000210: dfa9 683e 9da9 87be bf8e b3bd 9df8 d33e
00000220: 7c05 26be 397c cd3e 7965 913d be93 bcbe
00000230: 6dba e1be 5587 dabe 66b0 2b3d c817 c7be
00000240: 859e d73e 2ac7 a6be 106d d1be 0df1 c3be
00000250: b3f9 783e 37c4 d1be 4969 783e 59ca c93e
00000260: 1ce6 9e3e 1a7d a4bd e6a2 08be 1a94 e0be
00000270: f22d 9b3e 9fe9 3d3e 56c1 18be a1b6 4d3e
00000280: d7fd d13e aeee cf3e 0702 e5be 9aba c03e
00000290: cb22 5ebe 3d03 c0be 750d d43c 6832 e2bd
000002a0: cb18 643e 76ab 50be 5941 723e ba4d 8c3e
000002b0: 6363 563e bffa 783e 4606 c23e 4b02 9d3d
000002c0: 1d17 873e 047e acbe fd37 d8be b48c a53e
000002d0: 1c9c c1be e7fd cd3e d3c0 d13e 5f2c c93e
000002e0: f264 cfbe 278e de3e a3b5 e0be 5797 4dbe
000002f0: aba2 693e 7559 cfbe b4b4 3abe 661f 71be
00000300: 8bb2 d3be 5c77 bf3e 14ac 86be 7e4d aabe
00000310: 8033 173d 39a7 903b 046b 9ebe b0d6 ce3e
00000320: 86bb a1bc f8be c7be 8514 b33e 86b0 233e
00000330: 3901 bebe 7233 d9be 12af 83be 5964 133e
00000340: d1e3 45be 5e64 7fbe 7642 b9be 4d54 0f3e
00000350: d23a 1abe 9c70 a73e d79c cd3e 875d ec3d
00000360: dfa3 82bd 1862 e1be e5a4 c73e 5f60 df3e
00000370: 21c6 1dbd ff7b 593e b408 d03e 79f1 dabe
00000380: 9593 0f3e 1c7a 0bbe 9fe4 c93e b7fc ec3c
00000390: 2c6f 25bd 5b51 c1be 34da e5be b26e 9b3d
000003a0: 9409 9b3e bdbf 8cbe f657 8e3e ff25 b8be
000003b0: a71f 8cbe 7588 afbb b7b6 c03e 4f51 debe
000003c0: 1370 b83d 402a 5dbe 51cb 1bbe 075a b9be
000003d0: 1a83 543e c628 c53e f33f dfbe aad8 ca3e
000003e0: a9ed 113e 3504 213e 6396 f13c 727b b1be
000003f0: 27ad 7abe 9630 d1be 202e e23d b6d6 cbbc
0.10108457 0.38837686 0.23811969 -0.22442715 0.06825472 -0.06795324 -0.34435144 -0.384552
0.2392596 0.37633035 -0.40329778 0.09610974 -0.44686663 -0.39408094 -0.33380985 -0.34889197
0.16479452 0.05425559 -0.42923215 -0.42948195 -0.0005667704 0.38759062 0.09715982 -0.44056466
0.16249914 0.4201818 0.42657125 -0.4148259 0.22892332 0.19464801 -0.1430068 -0.19063552
0.24249412 -0.08938149 -0.36775643 -0.43426856 0.40455875 0.15572233 -0.42363694 -0.40851122
0.4095756 -0.11593868 -0.26636624 0.39492813 -0.42920905 0.4020469 -0.22435005 -0.3207387
0.2687733 0.3990701 0.006225219 0.2677675 -0.18950185 0.28378892 -0.26556066 0.20420255
-0.36589608 -0.2978283 0.33073854 0.33859894 0.36685914 -0.42876318 0.23205185 0.27215454
0.039219454 -0.45442522 -0.41094655 -0.38899583 -0.30407327 -0.032054454 0.3922922 -0.380188
0.21761365 -0.16175693 -0.43833518 0.38215286 0.36124185 -0.082927756 -0.01120639 0.39678305
-0.108168185 0.4083225 0.40759477 -0.39204776 0.17530571 -0.34102806 -0.389852 0.027128689
0.072112784 0.36817867 -0.13283601 0.39942706 -0.39010096 -0.43464082 -0.07265286 0.27940935
-0.36240953 -0.36108884 -0.143657 0.4104545 -0.37810308 -0.080878645 -0.40830857 0.010952451
-0.21677276 -0.2770187 -0.05833191 -0.3894788 0.41734844 -0.3850786 -0.3462446 -0.1659189
0.38503712 -0.15790875 0.015177898 -0.44830072 0.017622616 0.1870576 0.3755528 -0.10903896
0.41794696 0.36009723 0.2644528 0.43516484 -0.3662668 0.07098723 -0.28303778 -0.08166579
-0.42594764 -0.34943044 -0.43406427 0.333781 0.2272105 -0.26496592 -0.08767461 0.41400614
-0.1621303 0.40133837 0.070994325 -0.36831468 -0.44087544 -0.42681375 0.041916274 -0.3888533
0.42113128 -0.32573825 -0.4090352 -0.38269845 0.24314003 -0.40970013 0.24258913 0.39412192
0.31034935 -0.08031674 -0.13343391 -0.43862993 0.3030849 0.1854615 -0.14917502 0.20089199
0.41013977 0.40611786 -0.4472811 0.37642366 -0.2169296 -0.3750247 0.025885323 -0.110447705
0.22275083 -0.20377907 0.2365774 0.2740305 0.2093635 0.24314402 0.3789541 0.07666453
0.26384822 -0.33689892 -0.42230216 0.3233391 -0.37814415 0.40232775 0.40967426 0.39291665
-0.40506703 0.4346783 -0.43888578 -0.20077263 0.22815959 -0.40497938 -0.18232995 -0.23547134
-0.41347155 0.3739575 -0.2630316 -0.33262247 0.03691435 0.0044144657 -0.3094102 0.4039817
-0.019742738 -0.39012885 0.34976593 0.15985307 -0.37110308 -0.42422062 -0.25719506 0.14393748
-0.19325186 -0.24940631 -0.36183518 0.13997002 -0.150615 0.32703102 0.40158722 0.115412764
-0.06378912 -0.44020152 0.38992992 0.43628213 -0.03851903 0.21238707 0.4063164 -0.42762354
0.14021142 -0.136208 0.39432237 0.028929098 -0.040389225 -0.37757382 -0.44893038 0.07589473
0.30280745 -0.27490035 0.27801484 -0.3596649 -0.273679 -0.005356843 0.376394 -0.4342141
0.090057515 -0.21598148 -0.15214278 -0.36201498 0.20753136 0.3850767 -0.43603477 0.39618427
0.14250816 0.15724261 0.029490655 -0.34664494 -0.24480115 -0.4085738 0.11043954 -0.024882656
