weights/SpO2/square_nn/float/square_model_scaled_hypnogram_1000epoch.pt (torch, 156639 bytes, 3 tensors)

linear_1.weight f4 [128, 300]
0	0x3c261fa6	0.0101393815
1	0x3cfd840f	0.03094676
2	0x3cdbaefd	0.02681684
3	0x3d211b2e	0.03933256
4	0xbb8d51a3	-0.0043127104
5	0x3ce37bda	0.027769018
6	0xbe171215	-0.14752991
7	0xbb7a3e02	-0.0038183932
8	0xbc906d53	-0.017630255
9	0x3d0f38c1	0.034966234
10	0xbd199b70	-0.037501752
11	0x3e088681	0.13332559
12	0x3d13cb4d	0.036082555
13	0xbe1eae49	-0.15496172
14	0xbdb0a44e	-0.08625089
15	0xbdb7eb08	-0.089803755
16	0xbe3a93ef	-0.18220495
17	0xbcea1f5c	-0.028579406
18	0xbdbee9b4	-0.09321919
19	0x3bff93d2	0.007799604
20	0x3db702fc	0.08936116
21	0x3d972b32	0.07381286
22	0x3ced6c6a	0.02898236
23	0x3dfd65b4	0.12372914
24	0x3d8a4ac4	0.06752542
25	0x3d0ab3a6	0.033862732
26	0x3ccd9f61	0.025100412
27	0xbd28d5eb	-0.041219633
28	0xbde601c4	-0.112308055
29	0xbdac07d1	-0.08399928
30	0x3d7b160d	0.061300326
31	0x3e2e55f7	0.1702498
32	0x3e022497	0.1270927
33	0xbc2e2765	-0.01062951
34	0xbde77cbc	-0.11303088
35	0x3d677b37	0.05651399
36	0x3aab59a8	0.0013072984
37	0x3dcb92dd	0.09940121
38	0xbd060455	-0.032718975
39	0xbaf446e5	-0.0018636851
40	0x3dce4b2f	0.10072934
41	0xbd1b78bb	-0.037956934
42	0xbd003d50	-0.031308472
43	0xbe3a7070	-0.18206954
44	0xbdb997fb	-0.09062191
45	0xbd97d2f7	-0.07413285
46	0x3d159eb4	0.036528304
47	0xbdd6ee5b	-0.104946814
48	0xbdb57318	-0.08859843
49	0x3d0bfb7c	0.03417538
50	0x3d1ede38	0.038786143
51	0x3e1a4b09	0.15067686
52	0x3dfa765b	0.12229606
53	0x3e343f94	0.17602378
54	0x3e0dbd7a	0.13841811
55	0xbd1ec5ad	-0.038762737
56	0x3d23c685	0.039984245
57	0xbd6cf7cf	-0.057853516
58	0xbe09fd41	-0.13475515
59	0xbe0d815b	-0.13818876
60	0xbc9abc65	-0.018888662
61	0xbb8bdc3f	-0.0042681987
62	0x3d90c543	0.07068875
63	0xbbd4213d	-0.006473689
64	0x3d09b891	0.033623282
65	0x3de3f35b	0.11130401
66	0x3d941645	0.0723081
67	0x3cbf9519	0.023386525
68	0x3d01f950	0.031731904
69	0x3da5a592	0.08088221
70	0xbe073028	-0.13201964
71	0x3ad81414	0.0016485476
72	0x3d13335c	0.035937652
73	0x3de4e179	0.11175818
74	0x3d8e95a4	0.069621354
75	0x3d7a049a	0.061039545
76	0x3d9d1515	0.07670037
77	0xbd5b5e40	-0.05355668
78	0x3d2f4489	0.04278997
79	0xbc0e8eca	-0.008701036
80	0x3d9ca9fc	0.076496094
81	0x3e18d179	0.14923657
82	0x3dcd94a7	0.10038119
83	0xbe06e311	-0.13172556
84	0x3d0969a1	0.033548
85	0x3d6ad01f	0.057327386
86	0x3d41dd68	0.04733029
87	0xbd15707a	-0.03648422
88	0xbd4a1d95	-0.049344618
89	0xbd47838c	-0.048709437
90	0x3c970123	0.01843316
91	0xbd8bdd70	-0.06829345
92	0xbd68eaf8	-0.05686471
93	0x3d0144dc	0.03155981
94	0xbda38eca	-0.07986219
95	0xbd2c0172	-0.041993566
96	0x3d76e9f7	0.06028172
97	0x3d84bf2d	0.064817764
98	0xbd339527	-0.043843415
99	0xbdae754c	-0.08518466
100	0xbcff5e90	-0.03117302
101	0x3e11115b	0.14166777
102	0xbe08e6cf	-0.13369296
103	0x3e2f4079	0.17114438
104	0x3d40f6ca	0.047110356
105	0xbdb0bedc	-0.086301535
106	0xbe2fc0cd	-0.17163391
107	0xbda8fc7c	-0.082512826
108	0xbd3298c7	-0.04360273
109	0x3dcff99a	0.101550296
110	0xbd913381	-0.07089902
111	0xbdec5f46	-0.115416095
112	0xbe811d70	-0.25217772
113	0x3d2eca01	0.042673115
114	0xbd8848da	-0.0665452
115	0xbe28d1b8	-0.16486251
116	0x3d9d7f9b	0.076903544
117	0x3cbf12e2	0.023324434
118	0x3e00a5e1	0.12563278
119	0x3e04d3bd	0.12971397
120	0x3e59e493	0.212786
121	0x3ddce8d3	0.10786595
122	0x3dc90199	0.09814758
123	0x3dfeb04d	0.124359705
124	0x3e1c7dae	0.15282318
125	0x3c3d57e0	0.011556596
126	0xbd06e19c	-0.03293
127	0xbda0c1ee	-0.07849489
128	0xbd9d2781	-0.076735504
129	0xbdcc7f5a	-0.09985228
130	0xbd92fc47	-0.07177024
131	0xbdac7c3b	-0.084221326
132	0xbe199a15	-0.15000184
133	0xbd28143c	-0.041034922
134	0xbd0c3ac2	-0.034235723
135	0xbde72c7c	-0.112877816
136	0xbb1ebcc6	-0.0024221404
137	0xbba1b9e6	-0.004935491
138	0xbd2706ff	-0.040778156
139	0xbbe24a53	-0.006905833
140	0x3e20601a	0.1566166
141	0xbb998a9e	-0.004685714
142	0xbdf39941	-0.11894465
143	0x3b7e7d5f	0.0038832051
144	0xbd97bf15	-0.07409493
145	0x3c9c4930	0.019077867
146	0x3da0c15a	0.07849379
147	0x3cfecf8c	0.031104825
148	0x3d85df92	0.06536783
149	0xbc9846ad	-0.018588388
150	0x3bd8230f	0.006595976
151	0x3cafb2cd	0.021447564
152	0xbbbea6f0	-0.0058182403
153	0x3c2556bf	0.010091483
154	0x3c6b7324	0.014370713
155	0xbdabe164	-0.08392599
156	0x3cc20ff2	0.023689244
157	0x3cc67f65	0.024230668
158	0xbc9e44a6	-0.019319844
159	0xbd8878c6	-0.06663661
160	0xbd9e32a5	-0.077245034
161	0xbd2b0999	-0.0417572
162	0xbe03dae9	-0.12876476
163	0x3d0988aa	0.0335776
164	0xbcd5482a	-0.026035387
165	0x3956063e	0.00020410956
166	0xbdf110d3	-0.11770787
167	0xbc1c5407	-0.009541518
168	0xbd9772d8	-0.073949516
169	0xb925ddb7	-0.00015818221
170	0xbbec1d66	-0.007205653
171	0xbd8cfeec	-0.0688456
172	0x3dbd0537	0.0922951
173	0x3d5583e0	0.05212772
174	0x3da8d69a	0.08244057
175	0x3d86b0dd	0.06576703
176	0xbbb8a23a	-0.0056345733
177	0xbbbaf10a	-0.0057050036
178	0x3ce2a159	0.027664827
179	0xbc3f2436	-0.011666348
180	0xbdff1948	-0.12455994
181	0xba16730a	-0.0005739188
182	0xbd730b7c	-0.059337124
183	0xbd77edde	-0.060529582
184	0x3c209e66	0.00980339
185	0x3df467f3	0.11933889
186	0x3e45e602	0.19326022
187	0x3d398de1	0.045301322
188	0x3de7192a	0.112840965
189	0x3db69182	0.08914472
190	0x3b28292a	0.0025659301
191	0xbd7611e1	-0.060075644
192	0xbe099863	-0.13437037
193	0xbd945d6e	-0.07244383
194	0xbd87effa	-0.06637569
195	0xbda4e977	-0.080523424
196	0xbd229735	-0.039694984
197	0xbcc4ffd9	-0.024047779
198	0xbddc7d79	-0.107661195
199	0xbd88ad09	-0.06673629
200	0xbdcc811d	-0.09985564
201	0x3d65d066	0.056106947
202	0xbb16e057	-0.00230219
203	0x3da535dc	0.080669135
204	0x3d31c651	0.04340202
205	0x3d0fd152	0.035111733
206	0xbbdc8879	-0.006730136
207	0x3cad53a4	0.021158047
208	0xbd15ebe7	-0.036601927
209	0xbe02e78d	-0.12783642
210	0x3da71f8f	0.08160316
211	0x3d256f43	0.04038931
212	0x3c6df02a	0.014522592
213	0xbda19f2d	-0.078916885
214	0xbd1513cc	-0.036395833
215	0x3dd53f17	0.10412424
216	0xbd50c7a1	-0.05097163
217	0xbd162673	-0.03665776
218	0x3dc7250c	0.09723863
219	0xbd538c6d	-0.051647592
220	0xbd00fe2c	-0.031492397
221	0x3d8d48df	0.06898665
222	0x3ccc7af9	0.024960982
223	0x3cab681f	0.020923672
224	0x3d1080bc	0.03527902
225	0x3d27fe26	0.04101386
226	0xbd2bf8f0	-0.041985452
227	0xbb2d6412	-0.0026457352
228	0xbd9c5807	-0.076339774
229	0xbda751f8	-0.08169931
230	0xbb54291a	-0.0032373131
231	0x3e095e77	0.13414942
232	0x3d41c251	0.047304455
233	0x3c3a1f35	0.011359979
234	0xbdc9cb5d	-0.098532416
235	0xbdcc3797	-0.099715404
236	0xbc422d56	-0.011851629
237	0xbddc6542	-0.10761501
238	0xbd1a3049	-0.037643705
239	0x3dd52783	0.10407927
240	0x3dc53cbf	0.09630727
241	0xbc226ce1	-0.009913654
242	0x3cdeb340	0.027185082
243	0x3dceb67b	0.10093399
244	0x3c92d4e0	0.017923772
245	0x3caeaa49	0.021321433
246	0x3e18bed2	0.14916542
247	0x3bed7036	0.0072460426
248	0xbdc0916b	-0.09402736
249	0xbda90972	-0.08253755
250	0xbe5ebfb0	-0.2175281
251	0xbdd8cf67	-0.10586434
252	0x3d75596f	0.059899744
253	0xbd070416	-0.03296288
254	0x3d857689	0.065167494
255	0xbdbca3a3	-0.09210899

linear_1.bias f4 [128]
0	0x3bd0d201	0.0063726907
1	0x403f3007	2.9873064
2	0xc0b407e6	-5.625964
3	0x4083ac85	4.1148095
4	0xc00d525f	-2.2081525
5	0xbd991158	-0.07474011
6	0x40c8397f	6.2570186
7	0xbea8f5d0	-0.3300004
8	0x3fec485a	1.845958
9	0x3fcff8c6	1.6247795
10	0xbdd910f6	-0.10598938
11	0xbe56915b	-0.20953886
12	0x40516c8d	3.2722504
13	0xbfac085b	-1.344005
14	0x3d65f73f	0.056143995
15	0xbd69c8f2	-0.057076402
16	0x3fc00e9d	1.500446
17	0xbf18390d	-0.5946205
18	0xbf2f82dd	-0.68559057
19	0xc0511a41	-3.2672274
20	0xbfad675c	-1.3547168
21	0x4065be0a	3.589724
22	0x3f6831f4	0.9070122
23	0xbfc19a78	-1.5125265
24	0x3fa395fc	1.2780147
25	0xbcd896a0	-0.026439011
26	0xbfd1f9dc	-1.6404376
27	0xbfb84e93	-1.4398979
28	0x40730404	3.79712
29	0xbdcb6555	-0.09931437
30	0x40d22dfa	6.5681124
31	0xbf576897	-0.84143966
32	0x3f321527	0.69563526
33	0xc04fc24e	-3.2462344
34	0xbf130923	-0.57435817
35	0xbf923047	-1.1420983
36	0x3f8359f2	1.0261824
37	0x3d9d66a4	0.07685593
38	0x3fab0799	1.3361694
39	0xc017692f	-2.365795
40	0xbf65ef5f	-0.89818376
41	0x406ae58e	3.670261
42	0x3e9f0853	0.31061038
43	0xbfd44ba7	-1.6585587
44	0xbe90257e	-0.28153604
45	0xc020fe46	-2.5155196
46	0xbf8b02b4	-1.08602
47	0xbde442cc	-0.11145553
48	0x3db6b5b3	0.08921375
49	0x4005901c	2.0869207
50	0xbeb47548	-0.35245728
51	0xbe117a01	-0.14206697
52	0xbd77bac0	-0.060480833
53	0x3effbdb6	0.49949425
54	0xbf8107a6	-1.0080459
55	0xbe16376d	-0.14669581
56	0x40621b61	3.532921
57	0xbeb05265	-0.34437862
58	0x3de685f9	0.11256022
59	0xbdc4944f	-0.095986
60	0xc00d87bd	-2.2114098
61	0xbe4cd3ef	-0.20002721
62	0xbde3c4a7	-0.11121493
63	0x3db6b5a7	0.08921366
64	0xbe0ac4b1	-0.13551594
65	0x401c40df	2.4414594
66	0x3fea31f4	1.8296494
67	0x3fda3408	1.7047129
68	0xbf9cef56	-1.226054
69	0xbff92ebc	-1.9467387
70	0xbdb88056	-0.09008853
71	0xbd5d0f44	-0.053969637
72	0xbdb8f706	-0.09031491
73	0xbe7c6476	-0.24647698
74	0xc00bd45f	-2.184837
75	0xbdf7845d	-0.12085793
76	0xbd83255e	-0.064036116
77	0xbe2f3f56	-0.17114004
78	0x401d0bbb	2.453841
79	0xbe8f4a4c	-0.27986372
80	0xc0261f61	-2.5956652
81	0xbd77e132	-0.060517497
82	0x3efa7622	0.48918253
83	0xbcb1adbf	-0.021689294
84	0xc08ea7b2	-4.4579706
85	0x3fc8de74	1.5692887
86	0xc0339d5a	-2.806479
87	0x4094061f	4.625747
88	0x3f30e1e9	0.6909471
89	0x3fec3d9d	1.8456303
90	0x3f338ded	0.70138437
91	0xbe54ef43	-0.20794396
92	0x4002ebc6	2.0456405
93	0xbfb4bee7	-1.4120759
94	0x3ee88a62	0.45418078
95	0x3c4e3a37	0.012587122
96	0xbfc3b529	-1.5289661
97	0x4096eb7d	4.716246
98	0xc048b8c8	-3.1362782
99	0xbe852d89	-0.26011303
100	0xbf154380	-0.5830612
101	0x403af4d0	2.9211922
102	0x3fbb8ef1	1.4652997
103	0xbee1f402	-0.44131476
104	0x4021aa2e	2.526012
105	0x405b2e8c	3.424716
106	0x415a6cff	13.65161
107	0x3cff7217	0.031182332
108	0xbd25224a	-0.040315904
109	0xbfb88902	-1.4416811
110	0x4024323f	2.5655668
111	0xc0020906	-2.0318007
112	0x40291ea8	2.642496
113	0x3f74f2d8	0.9568305
114	0x3f90cd0b	1.1312574
115	0xc00def14	-2.2177172
116	0x3c385196	0.01124992
117	0xbf90969f	-1.1295966
118	0xc055b436	-3.3391242
119	0x404c55bc	3.1927328
120	0x409e9345	4.955477
121	0xc023f4d0	-2.5618172
122	0xbe596c53	-0.21232729
123	0x3f71b3b6	0.9441484
124	0xbf930573	-1.1486038
125	0x405cb37d	3.448455
126	0xbe6a6461	-0.22889854
127	0x3e472f59	0.19451655

linear_2.weight f4 [1, 128]
0	0xbbd45c41	-0.006480724
1	0x3c17008a	0.009216437
2	0x3d00a126	0.031403683
3	0x3d171986	0.036889575
4	0xbc96656b	-0.018358907
5	0xb94b7aa9	-0.00019405283
6	0x3d1ecdb7	0.038770404
7	0x3c22a468	0.009926893
8	0xbd2ca169	-0.04214612
9	0xbd389b01	-0.0450697
10	0xbadbece2	-0.0016778971
11	0x3b8b3c8c	0.004249161
12	0x3c90c204	0.017670639
13	0x3b80b4d2	0.0039278055
14	0x397d2b59	0.00024144108
15	0x39fdbbda	0.0004839588
16	0x3d28b804	0.041191116
17	0x3b534146	0.003223495
18	0x3bdb05fd	0.0066840635
19	0x3d94a312	0.07257666
20	0x3aeeb5e2	0.0018212164
21	0xbc094af6	-0.0083796885
22	0xbc5d0622	-0.013490232
23	0x3b04c0d1	0.002025653
24	0x3d3b2a50	0.04569465
25	0x3a871905	0.0010307139
26	0x3c6bcf99	0.014392757
27	0xbd2eccd6	-0.042675816
28	0xbcba6e87	-0.022757782
29	0xbc797f8c	-0.015228163
30	0x3d0b6cd0	0.03403932
31	0x3ca99202	0.020699505
32	0x39c748bc	0.0003801043
33	0xbcb985c2	-0.022646789
34	0x3b487142	0.0030585085
35	0x3b4b68c5	0.003103779
36	0xbd0ebd9f	-0.034848806
37	0x3af454ba	0.0018640973
38	0xbbcc0df3	-0.006227249
39	0xbbf94c3e	-0.0076079657
40	0x3c58c103	0.013229611
41	0x3ba04274	0.0048907343
42	0x3c775c91	0.015097753
43	0x3c234779	0.009965771
44	0x3b291393	0.002579902
45	0x3d634c51	0.055492703
46	0xbd941d92	-0.072322026
47	0x3a0927c8	0.0005232063
48	0xbcaaa3f6	-0.020830136
49	0xbbac4968	-0.005257774
50	0x3c1e0e9b	0.009647037
51	0x3ba415fd	0.005007504
52	0x388f5a07	6.83554e-05
53	0xbc7ac29c	-0.015305188
54	0xbbabc5c6	-0.0052420823
55	0xba0feb21	-0.0005490054
56	0x3c50ce1c	0.012744453
57	0x3a6701c6	0.0008812215
58	0x3c1ae42e	0.009453816
59	0x394bb1b7	0.00019425793
60	0x3c6aa938	0.014322571
61	0x396b5278	0.00022442068
62	0x3b2254e7	0.0024769844
63	0x3aefe204	0.0018301611
64	0x39ecef4d	0.0004519172
65	0xbc7178da	-0.014738286
66	0xbc5e3795	-0.0135630565
67	0x3a6b5f8d	0.0008978777
68	0x3acfa276	0.0015841264
69	0xbb126713	-0.002233927
70	0x3a74f15d	0.0009343827
71	0x3a982456	0.0011607509
72	0x3b52f2d1	0.0032188187
73	0xbbe3539f	-0.0069374586
74	0x3bd4783e	0.0064840605
75	0xbb8bea32	-0.0042698616
76	0x3b473bc4	0.0030400613
77	0x3a7eebf8	0.0009724493
78	0x3d32c90a	0.043648757
79	0x3a9af637	0.0011822645
80	0xba5aac17	-0.00083416834
81	0x3a5c9d91	0.0008415813
82	0x3a8e01ba	0.0010834255
83	0x39dd32b0	0.0004219017
84	0xbc6e7d9d	-0.014556316
85	0x3c10058d	0.008790386
86	0xbc1ad961	-0.009451241
87	0x3d552c45	0.05204417
88	0xbc1a6dff	-0.009425639
89	0x3b93536d	0.004496029
90	0x3db5a2f9	0.08868975
91	0xbb0a93b8	-0.0021145176
92	0x3c62ca14	0.0138421245
93	0xba5d50f2	-0.0008442543
94	0xba71eb3c	-0.0009228473
95	0x3a3f7d4c	0.00073047425
96	0x3ce41afc	0.027844898
97	0x3d504058	0.050842613
98	0x3c52df80	0.012870669
99	0x3d180074	0.037109807
100	0xbb7f04c1	-0.0038912746
101	0xbb8be0ea	-0.004268755
102	0x39c4b26e	0.00037516974
103	0xba96a7be	-0.0011494083
104	0xbcf98d26	-0.030462813
105	0xbabfbf95	-0.001462924
106	0xbd4aae8e	-0.049482875
107	0x3be98033	0.0071258782
108	0xb9c54f93	-0.00037634055
109	0xbd4fe311	-0.050753657
110	0x3c5dc6f6	0.0135362055
111	0x3d29412f	0.04132193
112	0x3bd80355	0.006592194
113	0xbb9e1dd3	-0.0048253327
114	0x3d39f371	0.04539818
115	0xbdc1c2f6	-0.09461014
116	0x39cf7b0a	0.00039573788
117	0x3b10506a	0.0022020587
118	0x3c88f7f0	0.016719788
119	0x3d241d40	0.040066957
120	0x3d58929a	0.052874185
121	0xbc86dac6	-0.016461741
122	0xb920767d	-0.0001530293
123	0x3b515e41	0.003194705
124	0xbd788eb6	-0.060682975
125	0xbd7de67b	-0.06198738
126	0xb9d0b686	-0.00039808842
127	0xbc8fd764	-0.017558761
