weights/SpO2/qat/quant_fc_5bits_data_3bits_weights.pth (torch, 4409 bytes, 1 tensors)

fc1.weight f4 [1, 300]
0	0xbc352c48	-0.011057921
1	0x3d272d42	0.040814646
2	0x3d3ecc4b	0.046581548
3	0x3d2e5187	0.04255822
4	0x3d375ad5	0.04476436
5	0x3d3cb6d0	0.04607278
6	0x3d64f510	0.055897772
7	0x3d419c67	0.047268298
8	0x3d3f711b	0.046738725
9	0x3d3b606a	0.045746244
10	0x3cd7e13e	0.026352521
11	0x3d37f0ba	0.04490731
12	0x3d36cdd4	0.044629887
13	0x3cbf8695	0.023379603
14	0x3d11f68e	0.035635523
15	0x3d1597c3	0.036521684
16	0x3c8e3aca	0.017362017
17	0x3cb06b1e	0.021535452
18	0xbcbe9889	-0.023266094
19	0x3cbff0ea	0.023430306
20	0xbca08e59	-0.019599127
21	0x3c65672c	0.014001649
22	0x3c2ca542	0.010537447
23	0xbc96257e	-0.018328425
24	0x3ce1748e	0.027521398
25	0xbd0e713c	-0.034775957
26	0xbd064a5d	-0.032785762
27	0x3cde3976	0.027127009
28	0xbc928712	-0.017886672
29	0xbca6a78b	-0.020343563
30	0x3b682b00	0.003542602
31	0xbcec2c9e	-0.028829869
32	0xbcee2882	-0.02907205
33	0xbcf3c7b3	-0.02975831
34	0x3c83f7c5	0.016109357
35	0x3ccc6ac1	0.024953248
36	0x3d11a443	0.035557043
37	0x392cba09	0.00016472502
38	0xbce5ba29	-0.02804287
39	0x3cdfa289	0.027299182
40	0xbcf9deee	-0.030501809
41	0xbcff8832	-0.031192873
42	0xbc278ea9	-0.010226884
43	0xbcf7e69e	-0.030261334
44	0x3b9145cd	0.0044333697
45	0x3b85f9dc	0.0040886234
46	0x3cc6ae09	0.024252908
47	0x3d03aede	0.03214919
48	0xbd090c15	-0.033458788
49	0x3cc1fb71	0.023679467
50	0x3ce4227f	0.02784848
51	0xbcb27d1f	-0.021788178
52	0xbc92e39f	-0.017930804
53	0x3cf497d6	0.029857557
54	0xbd06f6b2	-0.03295011
55	0x39c3f832	0.00037378218
56	0xbd00cc98	-0.031445116
57	0xbcb67ed0	-0.022277266
58	0x3ca18d5c	0.019720726
59	0xbc3513ba	-0.011052066
60	0x3c633225	0.013866936
61	0xbcc4c99e	-0.02402192
62	0xbccd08f9	-0.025028693
63	0x3bc6579e	0.0060529253
64	0x394cdcef	0.0001953726
65	0xbbbf9fb2	-0.0058478946
66	0xbc4e73f8	-0.012600891
67	0xbd0bc23a	-0.034120776
68	0xbb4ad4d5	-0.0030949612
69	0xbce7e262	-0.02830619
70	0x3cc73118	0.024315402
71	0x3c1958d0	0.009359553
72	0x3c6c1cd4	0.01441117
73	0xba87bb7f	-0.0010355561
74	0x3cf1628f	0.029465942
75	0xbd00e9cf	-0.031472977
76	0xbcc0b90a	-0.023525734
77	0x3c8faf0a	0.01753952
78	0x3cc3540f	0.023843793
79	0xbcf883a6	-0.030336212
80	0xbd048133	-0.032349776
81	0x3cfc58a5	0.030803988
82	0xbb81882e	-0.0039530015
83	0xbc90aec6	-0.017661463
84	0xbcb2775d	-0.021785432
85	0xbd061666	-0.032736205
86	0x3ca2cfb5	0.019874433
87	0xbd068a5f	-0.032846805
88	0x3cf4634a	0.029832501
89	0x3c8fe1c9	0.017563717
90	0x3c734b43	0.014849487
91	0x3cf21e65	0.029555509
92	0xbd053ea2	-0.032530434
93	0xbcfad7d0	-0.030620486
94	0xbbbdabc9	-0.0057883007
95	0x3c8e9da2	0.01740915
96	0x3d01785f	0.031608935
97	0xbd0301e7	-0.031984236
98	0xbcfd3003	-0.030906683
99	0x3c5db357	0.0135315275
100	0x3d09eacb	0.03367118
101	0xbc8a0576	-0.016848307
102	0x3cc61599	0.02418022
103	0xbcc73263	-0.024316018
104	0x3bc10ba9	0.0058912826
105	0x3c51da1d	0.01280835
106	0xbce95c9d	-0.028486544
107	0xbcfe3983	-0.031033283
108	0x3b58773f	0.003303006
109	0x3ce9fbb8	0.028562412
110	0x3ccb0998	0.024784848
111	0x3c183176	0.009289136
112	0x3cfa40fb	0.030548563
113	0xbd126c6d	-0.035747934
114	0xbcc181a1	-0.023621382
115	0x3cca053d	0.024660701
116	0x3c84e0b3	0.016220426
117	0xbc40a0bc	-0.011757072
118	0xbcf908ac	-0.030399643
119	0xbd077dfb	-0.03307913
120	0x3cebde72	0.028792594
121	0x3ce32534	0.0277277
122	0xbd1288ac	-0.03577487
123	0x3c6b17aa	0.014348904
124	0xbcfa5c34	-0.030561544
125	0xbc28f6b4	-0.010312725
126	0x3c78b6b1	0.015180276
127	0xbcd837f4	-0.026393868
128	0x3cf985fc	0.030459397
129	0x3cd3805b	0.02581804
130	0x3c94b6e6	0.018153619
131	0xbce3ca9d	-0.027806574
132	0xbd047193	-0.032334875
133	0x3ce2801c	0.027648978
134	0xbc356a2d	-0.011072678
135	0x3bcceb92	0.006253668
136	0x3ce09ac0	0.02741754
137	0x3b605070	0.0034227632
138	0xbce9b193	-0.028527057
139	0x3c5c9cfc	0.013465162
140	0x3c422b88	0.011851199
141	0x3b6f12e9	0.0036479777
142	0xbcd19348	-0.025582924
143	0xbd147704	-0.036246315
144	0x3d08da23	0.033411156
145	0x3d065584	0.032796398
146	0xbce110a6	-0.027473759
147	0x3d04de9b	0.032438856
148	0xbc8832cb	-0.016625782
149	0xbc4676cb	-0.012113283
150	0x3cd0816a	0.025452334
151	0xbd0400a3	-0.03222717
152	0x38ebe634	0.00011248552
153	0x3c132d73	0.008983004
154	0x3b7ff23b	0.0039054293
155	0xbcd2544f	-0.025674967
156	0x3af0731c	0.0018344852
157	0x3d034c93	0.03205545
158	0x3cdc52ff	0.026895044
159	0x3af88517	0.0018960562
160	0xbafe7d0a	-0.0019415927
161	0xbc3a3cfd	-0.01136708
162	0x3d147d28	0.03625217
163	0xbceaf755	-0.02868239
164	0x3c93f5ba	0.018061507
165	0x3d13d1a6	0.03608861
166	0x3d0655d8	0.03279671
167	0xbc18c666	-0.009324646
168	0xbc828bbc	-0.015935771
169	0xbcbf429b	-0.02334719
170	0xbb611b2c	-0.003434847
171	0x3d0a9acb	0.03383903
172	0xbcaa92e9	-0.020822005
173	0x3d105cea	0.03524486
174	0x3d0ee60d	0.034887362
175	0xbcf32d71	-0.029684754
176	0x3bfb3372	0.007666045
177	0xbc6c3194	-0.014416117
178	0xbccbc7d7	-0.024875565
179	0x3bf64dd5	0.0075166025
180	0x3d128ffa	0.035781838
181	0xbcb5876c	-0.0221593
182	0x3d16bf57	0.03680357
183	0xbcb77741	-0.022395732
184	0xbb986c8f	-0.004651613
185	0xbc2eba86	-0.010664588
186	0xbce7e0f6	-0.028305512
187	0x3ca156bf	0.019694684
188	0xbcbc74c9	-0.023004906
189	0x3c0428d3	0.008066374
190	0xbce5f62a	-0.028071482
191	0xbd05b3c8	-0.032642156
192	0x3bc75558	0.006083172
193	0x3d0d5cac	0.034512207
194	0x3cd7e2ff	0.026353357
195	0xbd05d1be	-0.03267073
196	0x3cfa7af0	0.0305762
197	0x3c7d323c	0.015453871
198	0x3d045dcd	0.032316018
199	0xbbb39660	-0.0054805726
200	0xbc800778	-0.015628561
201	0xba9907db	-0.0011675315
202	0xbd03df73	-0.03219552
203	0x3cff42d4	0.031159796
204	0x3d0b11d1	0.033952538
205	0x3c20fabe	0.009825407
206	0x3d097ab4	0.033564284
207	0x3be77289	0.007063214
208	0xbc2b8644	-0.010469023
209	0xbca77cea	-0.020445306
210	0xbc834c8e	-0.016027715
211	0x3b8d86fd	0.0043190704
212	0xbcf8c820	-0.030368865
213	0x3c5b509c	0.013385918
214	0xba2df923	-0.00066365505
215	0x3cd5edba	0.026114333
216	0xbc25f426	-0.01012901
217	0xbcfe46af	-0.031039564
218	0x3beea183	0.0072824373
219	0xbbe4db6e	-0.006984166
220	0x3c837b18	0.016049907
221	0xbcfd9091	-0.030952724
222	0x3d02beae	0.031920128
223	0x3b8d1f0c	0.0043066796
224	0xbd01a40c	-0.031650588
225	0xbc656960	-0.014002174
226	0x3cc11af4	0.023572423
227	0xbd002582	-0.03128577
228	0xbcd747bd	-0.026279325
229	0xbd175359	-0.03694472
230	0x3cc8ea88	0.024525896
231	0xbb791bf3	-0.0038011044
232	0x3bbf5d1c	0.005839957
233	0xbd12d537	-0.03584787
234	0x3c83ddc8	0.016096964
235	0x3c07631e	0.0082633775
236	0x3cdb4386	0.026765596
237	0x3c55ec20	0.013056785
238	0x3cccbc99	0.024992274
239	0x3ce7fcfc	0.028318875
240	0xbd04a786	-0.032386325
241	0xbca7c9c5	-0.020481953
242	0xbbb7b69e	-0.0056064865
243	0xbcdf8777	-0.027286274
244	0xbb9c64c1	-0.004772753
245	0x3cd92839	0.026508437
246	0xbce306bd	-0.027713174
247	0x3cf68da5	0.030096838
248	0x3ceb7fe1	0.0287475
249	0xbc0cded5	-0.008598049
250	0xbd09f1e3	-0.033677947
251	0xbcbb293b	-0.022846809
252	0x3bcbb3d1	0.006216504
253	0xbcfba80c	-0.03071978
254	0xbd0a3b9e	-0.03374826
255	0x3cff7d89	0.03118779
