weights/SpO2/qat/quant_fc_5bits_data_8bits_weights.pth (torch, 4409 bytes, 1 tensors)

fc1.weight f4 [1, 300]
0.015467069 -0.036578678 0.020360364 0.07569759 0.014189999 0.081308946 0.053418875 0.052349407
0.06809828 0.07935085 0.0818301 0.07365665 0.05494403 -0.010527093 0.0002269977 0.025646538
0.027197657 -0.030764041 0.040080182 0.0559997 -0.014020874 -0.002603024 -0.008532127 -0.06800019
-0.046309903 -0.055861123 0.025788145 0.012165796 -0.048943643 0.016405143 0.0041424157 0.024303308
0.013417386 -0.009877553 0.016805489 -0.048228446 -0.012949672 -0.017191892 -0.008399252 0.0010622572
0.030153727 -0.03775592 -0.0032032405 0.015608422 0.014342424 0.023678107 0.00055684487 -0.023161618
-0.012405883 0.0074130394 -0.051565144 -0.06190702 0.048676003 0.00064524595 -0.03081213 0.044331823
0.007873305 -0.028897662 0.0053445725 0.026258627 -0.008365312 -0.036109544 -0.040031508 -0.042577032
0.025090639 0.003552248 -0.01125746 -0.033306412 -0.023117706 0.01567075 0.007487098 0.009442245
0.017109873 -0.03281971 -0.016124083 0.020244896 0.003603184 -0.0065215244 0.0019446057 0.0019336217
0.018630773 0.0022015763 -0.07778703 -0.022085706 0.00030312804 0.00915865 -0.010735878 0.024835214
0.011944019 -0.023155129 0.03960239 0.0075404174 -0.029425299 0.020426435 -0.02117255 -0.0070945523
-0.03564362 -0.043721076 0.023471367 0.01380198 0.009003014 0.032260608 -0.05967067 0.041860778
-0.048217446 0.013639002 0.0004415592 0.028906519 -0.025862785 0.020221282 0.03356636 0.030625977
-0.06202598 0.010056625 -0.008425828 -0.027431225 0.010544521 0.033546407 -0.05166141 0.005439376
0.009904588 -0.048565194 -0.029671213 0.014096549 -0.008362503 0.014302948 -0.0035445741 0.018038346
0.02822887 -0.00994281 0.009231283 -0.00232887 0.019836167 -0.042362183 -0.0058095423 0.012487942
0.026868924 0.015100924 -0.022106476 0.0039817737 0.005666962 -0.004637927 -0.030799365 -0.03122313
0.040679332 -0.045613267 0.025063058 0.017477958 -0.005464878 -0.0141000785 0.021347467 -0.029175382
0.047008254 0.0053944285 -0.021250086 -0.0261725 0.039781764 -0.035607334 0.004146132 -0.028189665
0.05410603 0.0021015527 0.00924483 -0.007239091 0.004090534 0.0567941 -0.011111542 0.062832385
-0.028243255 -0.029755497 -0.03657237 0.05586532 -0.015511548 0.011160661 -0.011289478 -0.05546885
-0.016311804 0.03913069 -0.011315704 -0.026245605 0.02899601 -0.015248024 0.04351389 0.035556052
0.022765521 -0.040016506 -0.022468887 -0.039707854 -0.03689245 -0.0039960723 0.021565223 -0.030122755
-0.018156052 0.02626923 -0.04317816 0.018913614 -0.019613516 0.06737131 -0.0022389444 0.04706237
0.0077964445 -0.04232904 0.02850032 -0.024726775 -0.025693215 0.0360128 0.0029402317 0.0069182534
0.059263166 -0.039880544 0.0074207266 -0.018229423 0.025030077 -0.020203635 0.0026382953 -0.02853343
0.03364767 -0.026806913 -0.062512934 0.029055115 -0.013982802 0.040728178 0.003695702 -0.038100533
-0.03039902 -0.0045329635 -0.035984993 0.0537113 -0.042004883 -0.0022256456 0.026079873 0.004626232
0.0075138244 -0.03324417 -0.0036000854 -0.011581329 0.035612274 -0.0022812472 -0.03578381 -0.03830898
0.029542368 -0.005383261 0.008434252 0.022344857 -0.008219237 0.03770294 -0.015750276 0.046924558
-0.054092705 -0.032550413 0.009466605 0.018387605 0.0016870778 0.0014853593 -0.02891923 -0.042704213
00000000: 9769 7d3c 86d3 15bd c7ca a63c 5707 9b3d
00000010: 2b7d 683c 4e85 a63d c0cd 5a3d 556c 563d
00000020: 1c77 8b3d b382 a23d 8a96 a73d 4cd9 963d
00000030: fe0c 613d d479 2cbc 3b06 6e39 b018 d23c
00000040: 9fcd de3c df04 fcbc 1e2b 243d f15f 653d
00000050: cfb7 65bc 7f97 2abb 56ca 0bbc af43 8bbd
00000060: 74af 3dbd a2ce 64bd a941 d33c 0c53 473c
00000070: 2179 48bd 1464 863c 1abd 873b bb17 c73c
00000080: 99d4 5b3c 76d5 21bc aaab 893c 318b 45bd
00000090: dc2a 54bc 03d6 8cbc 049d 09bc 703b 8b3a
000000a0: f304 f73c f4a5 1abd 75ed 51bb 78ba 7f3c
000000b0: 7dfc 6a3c 97f8 c13c 3af9 113a 6fbd bdbc
000000c0: 0b42 4bbc 15e9 f23b f935 53bd 3792 7dbd
000000d0: 7d60 473d b925 293a b869 fcbc 4995 353d
000000e0: 09ff 003c caba ecbc 8621 af3b 551c d73c
000000f0: a90e 09bc 9ae7 13bd 14f8 23bd 4165 2ebd
00000100: e28a cd3c d5cc 683b 3671 38bc 4e6c 08bd
00000110: 5861 bdbc f25f 803c 5556 f53b a5b3 1a3c
00000120: 012a 8c3c f66d 06bd a716 84bc a0d8 a53c
00000130: 6523 6c3b 83b2 d5bb 24e2 fe3a 9471 fd3a
00000140: 909f 983c 5248 103b ce4e 9fbd 15ed b4bc
00000150: 28ed 9e39 2a0e 163c 89e5 2fbc 3873 cb3c
00000160: d9b0 433c d3af bdbc 1e36 223d 9b15 f73b
00000170: 530d f1bc 5755 a73c 0e72 adbc 6b79 e8bb
00000180: 0bff 11bd df14 33bd 0647 c03c b321 623c
00000190: 6181 133c b323 043d 3c69 74bd 3576 2b3d
000001a0: a87f 45bd 1f76 5f3c 1381 e739 5dcd ec3c
000001b0: 31de d3bc 1aa7 a53c e17c 093d 54e3 fa3c
000001c0: f40e 7ebd 8bc4 243c 7c0c 0abc 73b7 e0bc
000001d0: edc2 2c3c f567 093d ea9a 53bd cb3c b23b
000001e0: da46 223c 4cec 46bd 0b11 f3bc 36f5 663c
000001f0: e102 09bc e956 6a3c 164c 68bb 27c5 933c
00000200: 3b40 e73c 2be7 22bc cf3e 173c f49f 18bb
00000210: 757f a23c f883 2dbd f95d bebb 3a9a 4c3c
00000220: 381c dc3c de69 773c a418 b5bc 8a79 823b
00000230: ecb1 b93b c0f9 97bb f34e fcbc a6c7 ffbc
00000240: 5f9f 263d fad4 3abd 0b51 cd3c ef2d 8f3c
00000250: b812 b3bb 0404 67bc e2e0 ae3c 3601 efbc
00000260: ba8b 403d bfc3 b03b a914 aebc b667 d6bc
00000270: 34f2 223d ffd8 11bd 47dc 873b 03ee e6bc
00000280: 499e 5d3d 34ba 093b a177 173c e635 edbb
00000290: e309 863b eea0 683d 2f0d 36bc 44ae 803d
000002a0: 665e e7bc cdc1 f3bc e9cc 15bd 09d3 643d
000002b0: 2624 7ebc 34db 363c 81f7 38bc 4e33 63bd
000002c0: 55a0 85bc 8147 203d 8165 39bc 0601 d7bc
000002d0: 0a89 ed3c d9d2 79bc 9f3b 323d 39a3 113d
000002e0: c27e ba3c 59e8 23bd ac10 b8bc b4a4 22bd
000002f0: 8a1c 17bd 7cf1 82bb 8da9 b03c ffc3 f6bc
00000300: 00bc 94bc 9132 d73c 95db 30bd b9f0 9a3c
00000310: 86ac a0bc f8f9 893d 41bb 12bb 79c4 403d
00000320: 5179 ff3b 3761 2dbd 8179 e93c ce8f cabc
00000330: 947a d2bc 2882 133d e7b0 403b 84b2 e23b
00000340: efbd 723d c859 23bd 9129 f33b df55 95bc
00000350: e00b cd3c 1882 a5bc 40e7 2c3b f1be e9bc
00000360: 24d2 093d 2c9a dbbc c806 80bd fe04 ee3c
00000370: 1f18 65bc 97d2 263d 9733 723b 4e0f 1cbd
00000380: 5e07 f9bc 4189 94bb 0065 13bd 6100 5c3d
00000390: 500d 2cbd 23dc 11bb 75a5 d53c a697 973b
000003a0: 8736 f63b 0a2b 08bd 69ef 6bbb 9dbf 3dbc
000003b0: 2dde 113d fa80 15bb 0b92 12bd e1e9 1cbd
000003c0: d602 f23c 1166 b0bb d12f 0a3c 900c b73c
000003d0: fba9 06bc 666e 1a3d b906 81bc f733 403d
000003e0: 5090 5dbd 9553 05bd d219 1b3c 9aa1 963c
000003f0: f020 dd3a 63b0 c23a 05e8 ecbc 9dea 2ebd
