weights/SpO2/qat/quant_fc_5bits_data_2bits_weights.pth (torch, 4409 bytes, 1 tensors)

fc1.weight f4 [1, 300]
00000000: 6d37 e03c 2104 153d e53f 1c3d 39a2 7e3c
00000010: 9ce7 803c a4a7 a33c 95b3 163d 3689 b53c
00000020: b2e9 c83c bdfc ab3c 6c6e 913c 5f11 a73c
00000030: 001b 033d afdb 143d b0a0 f33c 604b 023d
00000040: 2397 fd3b 422c a43c 90a9 923c c293 993c
00000050: 591e 583c 8552 173c 425d 963b 1d36 0abb
00000060: 2cde 8c3a b9fe 8ebb fa9e 4dbc 0083 9dbc
00000070: 1541 8ebc 2529 97bc 75d4 bebc 5441 a0bc
00000080: 575d 8bbc 423c afbc 0f81 93bc cded a2bc
00000090: ba99 57bc d343 84bc 4958 a0bc e7e7 81bc
000000a0: ff29 7bbc 122c b0bc 0855 61bc edda 64bc
000000b0: 920b 3ebc afd5 5bbc d4ff a1bb f848 e0bb
000000c0: 4dfb 7ebc 0c6d a0bb 209d 08bc 8826 33bc
000000d0: 33f0 22bc cc31 90bc bfe1 4bbc d439 febb
000000e0: e09b 18bc 9f08 e7bb be20 2dbc f410 05bc
000000f0: e518 8bbc 5892 b1bc dd21 9abc cc14 9bbc
00000100: 8ac5 88bc af8b aebc 5614 91bc 1440 afbc
00000110: 22c4 8fbc 3cd0 d4bb bcb6 02bc 15f8 6abc
00000120: 3ed8 cebb 92bb 3bbc 67c9 8cbc 5ca1 55bc
00000130: b8a9 24bc 852e 5dbc 267d 87bc 1da9 3cbc
00000140: 37aa 27bc 5f1a 44bc d634 54bc 0899 82bc
00000150: 82e9 0abc 7f2e 7abc 47f2 37bc 3415 79bc
00000160: 0acd 5bbc 1b10 3eba d9cd c2bb f8e3 64bb
00000170: ee85 07bb 3f08 6fbb 9e3c 32bb a5c3 39bb
00000180: cc60 a3bb e226 7bbb c578 c1bb 24dd 74bc
00000190: 6bae a7ba 4c68 47bc 9d07 2ebc 19df 0cbc
000001a0: 6399 60bc b498 30bc 141a 84ba e7f9 2fbc
000001b0: a237 b4ba 948f ba3a f8ec 073b 3351 82bb
000001c0: 304c f4bb 9262 3cbc 8906 1fbc f050 52bc
000001d0: 4d3f 69bc 3353 2abc d03d 55bc 859c 2cbc
000001e0: 9b7f 23bc 53a8 84bc 5642 73bc 9011 e4bb
000001f0: 6261 05bb 328a fcba df57 5fbc 717a e0bb
00000200: c983 40bb 59a0 58bb 3168 00bc 079f 763b
00000210: 89a9 08bc ecce ceba 8d1c c9bb fcec 8dba
00000220: ae31 8ebb 6141 4ebc ad06 babb 2e8b 85bb
00000230: 0855 cb39 121c d0b9 e065 ddbb c39a 19bc
00000240: c7a7 b23b 5fb5 e7ba b12f a53b 39ec a83b
00000250: a08d c03b dcaf dd3a dc34 b73b a085 1eba
00000260: c303 613c 80a3 6f3c a2e0 543c 9aea 953c
00000270: 1a40 633c e33f 9e3c b9a7 ba3c f8ab 7d3c
00000280: c945 923c 4510 23bd 58a5 a83c ce72 a63c
00000290: 5807 a23c 67e4 983c 163f 6f3c d1d1 093c
000002a0: 148d 603c b0cd 513c 3c82 5d3b 78de 293c
000002b0: 4e62 6a3b 2eaa 903b 0ef3 493b 3c6e 80bb
000002c0: 89c7 f1bb d666 23bc 8477 3abb 4861 43bc
000002d0: c6ab 78bc 72f0 29bc 8e20 47bc 6c5c 14bc
000002e0: 0b0d 35bc 7043 5fbc f226 66bc f51e 53bc
000002f0: 93a2 37bc 5788 4abc e235 4dbc 0bc8 62bc
00000300: a058 8bbb bf65 e43b f6a3 57ba bbe0 133c
00000310: c90a d13b f6ff 223c d360 3e3c afa6 483c
00000320: 1dcf 503c 35d8 013c 8ef8 233c 91b2 1f3c
00000330: 28c2 1c3c 0e95 7e3c 645c 1f3c 37f4 bc3b
00000340: 24da 51b9 3ad9 febb 945d 1ebb ce1d 23bc
00000350: 1cc7 26bc 3f4e e0bb 9168 e7bb 5ff9 82bc
00000360: c130 77bc 9ebc aebc d8d1 9bbc 0e4e 9abc
00000370: 8261 a3bc e1a6 5abc ba60 a2bc 64e0 49bc
00000380: a89c 99bc 6d2f 94bc 408e 58bc be66 9bbc
00000390: 72d7 a9bc 1f65 b2bc 808c 8fbc 7157 77bc
000003a0: 7463 6cbc c42f 6dbc 9ef4 2abc 0174 3dbc
000003b0: 3cb3 10bc 2ffb 94bb 324d 33bc 699e ebbb
000003c0: 7660 e1bb 75c8 23b9 ec9d d1bb 0017 243b
000003d0: d8e4 b4bb d642 d53b 7ef3 8f39 2b0f ecba
000003e0: a299 8abb 90d6 09bc 7b7a 5dbb 41d5 aabb
000003f0: 7a8b 05bc fe9b 19bc 9831 5ebb 1831 ae3a
0.02737018 0.03638089 0.038146872 0.015541607 0.01573544 0.019977398 0.036792357 0.022160154
0.024525497 0.020994538 0.017752849 0.020394025 0.03200817 0.03634232 0.029739708 0.031810164
0.007738964 0.020040635 0.01790312 0.018747214 0.013190829 0.009235983 0.004588754 -0.0021089383
0.0010747365 -0.0043638614 -0.01255011 -0.019227505 -0.017365018 -0.018452236 -0.023294667 -0.0195624
-0.017012281 -0.021391038 -0.018005876 -0.019888783 -0.01315921 -0.016145622 -0.019573348 -0.01585765
-0.015329837 -0.02150539 -0.013753183 -0.013968212 -0.011599438 -0.013417645 -0.004943827 -0.006844636
-0.015562844 -0.004895812 -0.008338243 -0.01093448 -0.009944963 -0.01760187 -0.012443959 -0.0077583585
-0.009314507 -0.0070505883 -0.010566888 -0.008121718 -0.016979644 -0.021676227 -0.018814975 -0.018930815
-0.016695756 -0.02130684 -0.017709892 -0.02139286 -0.017549578 -0.00649455 -0.007978138 -0.014341374
-0.006312399 -0.0114582945 -0.01718588 -0.013038959 -0.01005023 -0.013499861 -0.016539168 -0.011514929
-0.0102334535 -0.011969178 -0.01295205 -0.015942112 -0.008478524 -0.015269875 -0.011227197 -0.015202809
-0.013415584 -0.00072503247 -0.005944949 -0.003492592 -0.0020679194 -0.003647342 -0.0027196775 -0.0028345373
-0.0049859043 -0.0038322737 -0.0059042894 -0.014945302 -0.001279307 -0.012170862 -0.010621932 -0.0085981125
-0.013708445 -0.010778595 -0.0010078573 -0.010740734 -0.001374949 0.0014233463 0.002074061 -0.003976965
-0.0074553713 -0.01149811 -0.009706148 -0.01283668 -0.0142362835 -0.010395813 -0.0130152255 -0.010535364
-0.009979154 -0.016193544 -0.014847359 -0.0069601014 -0.0020352234 -0.001926726 -0.01363179 -0.0068505337
-0.0029375425 -0.003305456 -0.007837341 0.0037631409 -0.008341202 -0.001577822 -0.0061374367 -0.0010828073
-0.0043394184 -0.01258883 -0.0056770653 -0.0040754294 0.0003878253 -0.00039693766 -0.006756529 -0.009375277
0.0054521295 -0.0017677954 0.0050410856 0.005155113 0.005876258 0.0016913372 0.005591018 -0.00060471334
0.013733807 0.014626384 0.01299301 0.018300343 0.0138702635 0.019317573 0.022785055 0.015482895
0.017855542 -0.039810438 0.020586655 0.020318415 0.019778892 0.018663598 0.014602443 0.008411841
0.013705511 0.012805387 0.003379955 0.010367982 0.003576416 0.0044148182 0.0030815038 -0.003919391
-0.007378523 -0.0099732485 -0.0028452585 -0.011925049 -0.015177673 -0.010372268 -0.012153758 -0.009055238
-0.011050473 -0.013626918 -0.014047371 -0.012885799 -0.011208194 -0.0123616075 -0.012525054 -0.013841639
-0.0042525083 0.006970137 -0.0008226031 0.009025748 0.0063794595 0.009948721 0.011619764 0.012246772
0.012744692 0.007925083 0.0100079905 0.009747163 0.009567775 0.015538467 0.0097266175 0.0057664174
-0.00020013057 -0.0077773603 -0.0024164664 -0.009955836 -0.010179307 -0.006845265 -0.007062026 -0.01598805
-0.015087307 -0.021330174 -0.01902096 -0.018836048 -0.019943956 -0.013345451 -0.019821513 -0.012321565
-0.018751457 -0.01808902 -0.013217509 -0.01896989 -0.020732615 -0.021776734 -0.01752305 -0.015096531
-0.014428008 -0.01447672 -0.010434298 -0.011563302 -0.008831795 -0.004546545 -0.010943698 -0.007190515
-0.006877954 -0.00015619567 -0.0063969996 0.0025038123 -0.0055204444 0.0065082116 0.000274565 -0.0018009892
-0.0042297402 -0.008412972 -0.0033794928 -0.00521341 -0.00815093 -0.00937557 -0.0033904072 0.0013289778
