quant_he_code/hcnn_mnist_plain.pth (torch, 59935 bytes, 6 tensors)

conv1.weight f4 [5, 1, 5, 5]
0	0xbd398177	-0.045289483
1	0x3e329b05	0.17441948
2	0x3d273260	0.040819526
3	0x3b2119d7	0.0024582052
4	0xbd5e7893	-0.054314207
5	0x3e4c0257	0.19922768
6	0xbc8346f3	-0.016025042
7	0xbde85aba	-0.1134543
8	0xbe81f486	-0.2538187
9	0xbe1651e9	-0.14679684
10	0xbc037f63	-0.008025977
11	0xbe2794ed	-0.16365404
12	0xbecc12b2	-0.39858013
13	0xbde8a24d	-0.113590814
14	0x3d40a24b	0.047029775
15	0xbd80b66a	-0.06284793
16	0xbe6bb6c2	-0.23018935
17	0x3dbb09d6	0.091327354
18	0x3e185462	0.1487594
19	0x3e5620db	0.20910971
20	0xbe57f152	-0.2108815
21	0x3d108ca6	0.035290383
22	0x3df90542	0.12159206
23	0x3e1abcca	0.1511108
24	0xbc392282	-0.011299731
25	0xbdf18f2c	-0.11794886
26	0x3ca74a2f	0.020421116
27	0x3da36d02	0.07979776
28	0x3c2075a8	0.009793676
29	0xbe8cd6aa	-0.27507526
30	0x3d27e280	0.04098749
31	0xbdc08ed7	-0.094022445
32	0xbebac644	-0.3647939
33	0xbd5a52e8	-0.05330172
34	0xbe3ac5cc	-0.18239516
35	0xbd3840a0	-0.044983506
36	0xbdb46391	-0.08808053
37	0xbd5217f0	-0.05129236
38	0xbb891320	-0.004183188
39	0x3e53e051	0.20691039
40	0x3ea3fd84	0.32029355
41	0x3e0685d2	0.13136986
42	0x3e8feec8	0.28111863
43	0x3d098b05	0.033579845
44	0xbd8882f5	-0.06665603
45	0xbcfdf97d	-0.031002754
46	0x3e3d0ccc	0.18461913
47	0x3d304e19	0.04304323
48	0x3c991146	0.018684994
49	0xbdf76f20	-0.12081742
50	0x3d5329c9	0.05155352
51	0x3d936a8a	0.07198055
52	0xbd6b7e63	-0.05749358
53	0xbe8189e4	-0.25300515
54	0xbe020404	-0.12696844
55	0xbd21de22	-0.039518483
56	0x3ea2b80c	0.31781042
57	0x3e2256fb	0.15853493
58	0xbd53746e	-0.051624708
59	0xbe6308ca	-0.22171322
60	0xbd4d06bd	-0.050055254
61	0x3dceeb32	0.10103454
62	0x3edc4602	0.43022162
63	0x3e402bca	0.18766704
64	0x3d95faac	0.073232025
65	0xbdc4ef16	-0.096159145
66	0xbde6c296	-0.11267583
67	0x3c9eb2b2	0.019372318
68	0x3e4bcdcf	0.19902728
69	0x3dbf870c	0.0935193
70	0xbd8a032c	-0.06738886
71	0x3d9a4619	0.07532901
72	0xbd873677	-0.06602185
73	0x3d5be935	0.0536892
74	0xbbbce20d	-0.005764252
75	0x3d9fb1d3	0.07797589
76	0xbd8943d2	-0.06702389
77	0x3c9c86df	0.01910728
78	0xbddd4c35	-0.10805551
79	0x3e1ef100	0.15521622
80	0x3af552c9	0.0018716689
81	0x3e7b2abf	0.24528025
82	0xbd8d61a8	-0.06903392
83	0xbcdcda7d	-0.026959652
84	0xbdedeedf	-0.11617827
85	0x3d347436	0.04405614
86	0x3e90983b	0.28241143
87	0xbcf8f59a	-0.03039055
88	0xbe930083	-0.28711328
89	0xbd9b8443	-0.07593586
90	0x3da8f2fe	0.08249472
91	0x3e86bd3e	0.26316255
92	0xbe8f9663	-0.28044423
93	0xbe1239d1	-0.14279868
94	0x3c536c38	0.012904219
95	0x3e1c1b80	0.15244865
96	0x3e119a83	0.14219098
97	0xbdc5929e	-0.09647106
98	0xbde30062	-0.110840574
99	0xbe0444ac	-0.12916821
100	0x3d0524fd	0.032505978
101	0x3da7f8cf	0.08201753
102	0xbde7084d	-0.1128088
103	0x3df3bac2	0.119008556
104	0xbe60d8c3	-0.21957688
105	0xbd746fce	-0.059676938
106	0x3d8128a8	0.06306583
107	0x3e752135	0.23938449
108	0xbdbb8e12	-0.09157957
109	0xbe39e35e	-0.1815314
110	0xbd0e09a3	-0.03467716
111	0xbd839a3d	-0.06425903
112	0x3e84dc4e	0.2594933
113	0xbe45e93e	-0.19327256
114	0xbe480854	-0.19534427
115	0x3d0a4b6b	0.03376333
116	0xbd6a13a9	-0.057147656
117	0x3ebbe412	0.3669744
118	0xbddeb1f9	-0.10873789
119	0xbdb2a124	-0.087221414
120	0x3e0922f2	0.13392237
121	0x3e571400	0.21003723
122	0xbda7e302	-0.08197595
123	0xbe1a897d	-0.1509151
124	0xbd853a05	-0.06505207

conv1.bias f4 [5]
0	0x3d4f2e46	0.05058124
1	0xbdeebb21	-0.11656786
2	0x3c9d37b5	0.019191602
3	0xbd48e447	-0.049045827
4	0x3e079711	0.13241221

conv2.weight f4 [50, 5, 5, 5]
0	0xbf0c0916	-0.54701364
1	0x3eb93634	0.36174166
2	0xbe9a9b53	-0.30196628
3	0xbee592c7	-0.44838545
4	0xbf0ebb7b	-0.5575482
5	0x3f29f728	0.66392756
6	0x3e43c94c	0.19119757
7	0xbe7b3186	-0.2453061
8	0xbf20e2a1	-0.6284581
9	0xbe4b3da6	-0.19847736
10	0xbe97c7ed	-0.2964472
11	0x3de931ad	0.11386428
12	0xbf52a320	-0.8228016
13	0xbda4bfb5	-0.08044378
14	0x3d6fbb06	0.05852797
15	0xbec9e564	-0.39432824
16	0xbf37a8cc	-0.7174194
17	0xbe534f5f	-0.20635746
18	0xbe946480	-0.28982925
19	0x3e6902eb	0.2275502
20	0xbe995770	-0.29949522
21	0xbd5da36d	-0.054110933
22	0x3f28e8b6	0.6598009
23	0xbdfc9643	-0.12333348
24	0xbe417e42	-0.1889582
25	0x3e948362	0.29006487
26	0xbd4f0a3a	-0.050546862
27	0x3e141142	0.14459708
28	0x3ea5c731	0.32378533
29	0x3d976960	0.073931456
30	0x3c634201	0.013870717
31	0x3f78cd87	0.9718861
32	0x3edd6ac3	0.43245515
33	0x3ede06d4	0.43364584
34	0x3d7cf25d	0.061754573
35	0x3eba749d	0.36417094
36	0x3f0ca246	0.5493511
37	0x3e8972c5	0.26845375
38	0x3ee72437	0.45144817
39	0x3de23aca	0.110463694
40	0x3d7c5223	0.06160177
41	0x3ea574b0	0.32315588
42	0xbd7db911	-0.06194407
43	0xbf08985b	-0.53357476
44	0xbc0ca145	-0.0085833715
45	0xbd58fb6c	-0.05297415
46	0xbe264fcf	-0.16241382
47	0xbe5a401a	-0.21313515
48	0xbec456a4	-0.38347352
49	0xbf2279cf	-0.63467115
50	0xbec92e96	-0.39293355
51	0x3edb21f6	0.42799348
52	0xbda20b01	-0.07912255
53	0x3f213723	0.62974757
54	0x3eb05a53	0.34443912
55	0x3e88e455	0.26736704
56	0x3f1161d1	0.5678988
57	0x3e192a63	0.14957576
58	0x3dfcbed2	0.123410836
59	0x3e9b78a7	0.30365488
60	0xbd13f89f	-0.036125775
61	0xbc7ae689	-0.015313753
62	0x3ebb994a	0.36640388
63	0x3e95c2d0	0.29250193
64	0xbf479596	-0.77962625
65	0x3e9cdfd3	0.30639514
66	0x3eeda0c4	0.46411717
67	0xbdcfdcf2	-0.10149564
68	0xbc54b167	-0.012981749
69	0xb8f52f64	-0.000116913376
70	0xbed6af27	-0.41930506
71	0xbd96d335	-0.07364503
72	0xbe693018	-0.22772253
73	0xbf4ac160	-0.79201317
74	0xbf03d72a	-0.5150019
75	0xbf0d8f71	-0.55297
76	0x3e42f13a	0.19037333
77	0x3e5f8fc5	0.21832187
78	0xbe972ed1	-0.29527906
79	0x3e60a721	0.21938755
80	0xbeae64ee	-0.34061378
81	0x3e1ffed4	0.15624553
82	0xbe480415	-0.19532807
83	0xbea7b830	-0.3275771
84	0xbd5fe0eb	-0.054657858
85	0x3f220000	0.6328125
86	0x3e61908c	0.22027797
87	0xbd8e84b6	-0.06958906
88	0xbea7aee9	-0.32750633
89	0x3d6fde58	0.058561653
90	0x3c87ca5e	0.016575988
91	0x3f2d6af8	0.67741346
92	0xbeed34a5	-0.46329227
93	0xbe7b2b22	-0.24528173
94	0xbd2d5436	-0.042316638
95	0x3b4a3d2d	0.0030859218
96	0xbed45e90	-0.41478395
97	0xbe82b441	-0.25528148
98	0xbd97b700	-0.07407951
99	0xbe52c210	-0.20581841
100	0xbf0073a5	-0.5017646
101	0xbe388877	-0.18020807
102	0xbc868570	-0.01642105
103	0x3ef0cdfc	0.47032154
104	0x3e833f3a	0.25634176
105	0xbe9cfd58	-0.30662036
106	0x3d1d8c27	0.038463738
107	0xbd827a71	-0.0637101
108	0xbd4f52f5	-0.050616223
109	0x3df4283a	0.11921735
110	0x3eb85f53	0.36010227
111	0xbddf496a	-0.109026745
112	0xbc648689	-0.013948091
113	0xbdbe88c6	-0.09303431
114	0x3e29e913	0.16592817
115	0xbf0fa21c	-0.56106734
116	0xbe6b83ce	-0.22999498
117	0xbe05e50b	-0.13075654
118	0x3e931955	0.28730264
119	0x3e24ec25	0.16105707
120	0xbe810614	-0.2519995
121	0xbf3911ee	-0.72292984
122	0xbed01c3c	-0.4064654
123	0x3e0104c6	0.12599477
124	0x3c172d96	0.009227177
125	0xbd10353c	-0.03520702
126	0xbdf1d87c	-0.11808869
127	0x3f0de49d	0.5542696
128	0xbe906028	-0.2819836
129	0xbf0d8cc6	-0.5529293
130	0xbe8d37fa	-0.2758177
131	0x3e3c64b9	0.18397798
132	0xbe026c62	-0.12736657
133	0xbe2947c3	-0.16531281
134	0xbf151511	-0.5823527
135	0x3ee99c62	0.45627123
136	0x3df26844	0.11836293
137	0x3ec8574b	0.391291
138	0xbe8eea9f	-0.27913377
139	0x3e9a3ddc	0.3012532
140	0x3e9be5bf	0.3044872
141	0x3eb931df	0.3617086
142	0x3d1ef8ba	0.038811423
143	0x3edd68d2	0.43244034
144	0x3eb70f97	0.35754082
145	0x3d7b099b	0.061288457
146	0xbf2a47be	-0.6651572
147	0x3e37828c	0.17920893
148	0xbef78f80	-0.4835167
149	0xbe9e5192	-0.30921608
150	0xbf05aefa	-0.5222012
151	0xbebfc53b	-0.37455162
152	0x3e4e4a06	0.20145425
153	0x3d7da1a3	0.061921727
154	0x3eef5ba8	0.46749616
155	0x3eb896e8	0.36052632
156	0x3eea2906	0.45734423
157	0xbd817821	-0.06321741
158	0xbde53634	-0.11191979
159	0x3e85b577	0.2611501
160	0x3e120148	0.14258301
161	0xbc3716a8	-0.011174835
162	0x3b593177	0.0033141056
163	0x3dafb14a	0.08578737
164	0xbec3d678	-0.38249564
165	0x3e72bb7d	0.23704334
166	0x3ea01b28	0.3127072
167	0x3dd38645	0.10328344
168	0x3efe460c	0.49662817
169	0xbb209682	-0.0024503772
170	0xbdc27dc9	-0.09496648
171	0xbf4cb30e	-0.79960716
172	0xbf064b25	-0.5245841
173	0x3f05252e	0.52009857
174	0x3e109711	0.14120127
175	0x3e6dc529	0.23219742
176	0xbd41644c	-0.04721479
177	0xbe91fa7e	-0.28511423
178	0x3f659a29	0.89688355
179	0xbeb76322	-0.3581782
180	0x3d222fdf	0.039596435
181	0x3c9243ea	0.01785465
182	0x3e803800	0.25042725
183	0x3d17a006	0.037017845
184	0x3f13dcee	0.57758987
185	0xbe999a5d	-0.30000582
186	0xbeab1c32	-0.3341995
187	0xbe86e5d6	-0.26347226
188	0xbe186381	-0.14881708
189	0xbea91923	-0.3302699
190	0xbe3734e5	-0.17891271
191	0xbd5f3074	-0.054489568
192	0x3ec344d8	0.3813846
193	0xbdc99bc3	-0.09844162
194	0x3e6a00f4	0.22851926
195	0xbee5c6e5	-0.44878307
196	0xbe9646c1	-0.29350856
197	0xbe9ca227	-0.30592462
198	0xbef202b9	-0.47267702
199	0x3ed53948	0.41645265
200	0xbdd7bf9b	-0.10534593
201	0x3e03e38f	0.12879775
202	0xbe2325cd	-0.15932389
203	0xbb296f00	-0.0025853515
204	0x3e0a99bb	0.13535206
205	0xbe915efa	-0.28392774
206	0xbc919285	-0.017770061
207	0x3e388e1e	0.18022963
208	0x3ed2756a	0.41105205
209	0xbe62cd58	-0.22148645
210	0x3f17eeef	0.5934896
211	0xbf0bd395	-0.54619724
212	0x3e70115b	0.2344412
213	0xbe8b893c	-0.2725314
214	0x3d8f6080	0.07000828
215	0x3db89604	0.09012988
216	0x3e2e2aa9	0.17008461
217	0x3eeeaaca	0.46614677
218	0xbf03e688	-0.5152364
219	0x3f034b0d	0.51286393
220	0x3edff2a4	0.43739808
221	0x3ea1dfaa	0.31615955
222	0xbe39d8d6	-0.18149123
223	0xbee3fc88	-0.44528604
224	0xbf265fb5	-0.6498979
225	0xbc567402	-0.013089182
226	0xbeced53d	-0.40397063
227	0xbd809bc6	-0.062797114
228	0xbd846e85	-0.064663924
229	0xbf2174b4	-0.630687
230	0xbe6b0796	-0.22952113
231	0xbe9597a3	-0.29217252
232	0x3e98553e	0.29752535
233	0x3db7e25e	0.08978723
234	0xbe71aa01	-0.23600008
235	0x3e5d1117	0.2158855
236	0x3e2a17a5	0.16610582
237	0x3e50f3f5	0.20405562
238	0x3f361cac	0.711375
239	0x3f674920	0.90345955
240	0x3c9c6e1a	0.01909547
241	0xbddebebf	-0.10876226
242	0xbf100da6	-0.56270826
243	0xbc34f2f3	-0.011044252
244	0xbd6ae077	-0.057342973
245	0x3f403426	0.7507957
246	0x3f0ebcf2	0.5575706
247	0xbea8664d	-0.3289055
248	0xbf0fa73e	-0.56114566
249	0xbf7e518d	-0.99343187
250	0x3e16235f	0.1466193
251	0x3e19c8ef	0.15018056
252	0xbd0471cb	-0.032335084
253	0x3dedd4e3	0.116128705
254	0x3e2de94d	0.16983528
255	0xbd94e612	-0.07270445

conv2.bias f4 [50]
0	0x3d40dfc0	0.047088385
1	0x3e33b0f8	0.17547977
2	0xbe06b2e6	-0.13154182
3	0xbca78086	-0.020447027
4	0xbcdb2182	-0.026749376
5	0x3ec05fc4	0.37573063
6	0xbe913994	-0.2836424
7	0x3db28622	0.0871699
8	0x3ea1e5a6	0.3162052
9	0xbe0147ba	-0.12625018
10	0xbef1eefa	-0.47252637
11	0x3e4a5856	0.1976026
12	0x3e083a0a	0.1330339
13	0x3e378ab1	0.17924
14	0x3e73c307	0.23804866
15	0xbe0fe2d6	-0.14051375
16	0xbf0b86b7	-0.54502434
17	0xbe7539f6	-0.23947892
18	0xbda1510d	-0.07876787
19	0x3c1a6b13	0.009424943
20	0x3e7d47d3	0.2473443
21	0x3c9a1b14	0.01881174
22	0x3d8e0a20	0.06935525
23	0x3d92041b	0.07129689
24	0x3eea4d0e	0.45761913
25	0xbcfaa6dc	-0.030597143
26	0x3ea72bdc	0.3265065
27	0xbf148e7a	-0.580299
28	0x3c563818	0.013074897
29	0xbeaab73b	-0.3334292
30	0x3ebe2d9b	0.3714417
31	0x3d7bbff6	0.061462365
32	0x3db36c95	0.08760945
33	0x3d878920	0.066179514
34	0xbf14343e	-0.57892215
35	0xbea6f656	-0.32609814
36	0x3d9f2f19	0.07772655
37	0xbe9096f0	-0.28240156
38	0xbf038f3c	-0.51390433
39	0x3e33537e	0.17512318
40	0xbe550e4b	-0.20806234
41	0xbc9440e7	-0.018097354
42	0x3e202300	0.15638351
43	0x3b9e9ddd	0.004840596
44	0xbf2416cf	-0.64097303
45	0xbd181fb1	-0.0371396
46	0xbeaaf0ab	-0.3338674
47	0x3d5dba69	0.054132853
48	0x3e0e6d50	0.13908887
49	0xbe900c60	-0.2813444

fc1.weight f4 [10, 800]
0	0x3e9d902a	0.3077405
1	0x3dc8043f	0.09766435
2	0x3ddcc770	0.10780227
3	0xbe8d5a03	-0.27607736
4	0x3ef2a41d	0.47390833
5	0xbc55f186	-0.013058072
6	0x3ed97542	0.42472273
7	0xbf05929b	-0.5217683
8	0xbdfbb059	-0.12289495
9	0x3d95009c	0.07275507
10	0x3c50c8b0	0.01274316
11	0x3df5b7cf	0.11997949
12	0xbcc3cb42	-0.023900632
13	0xbeda208e	-0.42602962
14	0xbebccbe9	-0.3687432
15	0xbd03a03d	-0.032135237
16	0x3d4677b1	0.04845399
17	0x3e375437	0.17903219
18	0x3ec4a8af	0.38409945
19	0xbf1a7c21	-0.60345656
20	0x3d8241bc	0.06360194
21	0x3ebfbcd8	0.37448764
22	0x3ee9de25	0.45677295
23	0xbea124aa	-0.31473285
24	0x3d926617	0.07148378
25	0xbebb545a	-0.36587793
26	0xbe201e1f	-0.1563649
27	0x3c4326d3	0.011911112
28	0xbd5676cd	-0.05235939
29	0xbd174ed4	-0.03694041
30	0xbe308100	-0.1723671
31	0xbf0d2725	-0.55137855
32	0xbf8095e5	-1.0045744
33	0xbf346cae	-0.7047833
34	0xbebf29a8	-0.3733647
35	0xbd59d622	-0.05318273
36	0xbf228c8e	-0.6349572
37	0xbee0e69b	-0.43925938
38	0xbdbff87c	-0.093735665
39	0x3ea3ee70	0.3201785
40	0x3d87b9a0	0.06627202
41	0xbf475ebc	-0.7787893
42	0xbe037dc1	-0.1284094
43	0x3e26bbc9	0.16282572
44	0x3e9864e3	0.2976447
45	0x3dbbe17f	0.09173869
46	0xbf80f02a	-1.0073292
47	0x3c8825b3	0.016619539
48	0xbd9a7b94	-0.07543102
49	0xbcdbd064	-0.026832767
50	0x3d5ee0e1	0.05441368
51	0x3ec2c1b4	0.3803841
52	0xbc241b0e	-0.010016216
53	0x3e7de8ee	0.24795887
54	0xbeddebdf	-0.43344018
55	0xbe8941e2	-0.26808077
56	0xbd8b6807	-0.06806951
57	0xbde00182	-0.109377876
58	0x3e9d8a85	0.30769745
59	0x3dcbec0c	0.09957132
60	0xbf25a81b	-0.64709634
61	0x3ec48836	0.3838517
62	0x3f79ca0d	0.9757393
63	0x3f3fd217	0.74929947
64	0xbeb79424	-0.3585521
65	0x3dd23bb7	0.10265296
66	0xbe14c219	-0.14527167
67	0xbe2b98de	-0.16757533
68	0x3d534146	0.05157592
69	0xbd0ba499	-0.03409252
70	0xbf183985	-0.5946277
71	0xbe7156a8	-0.23568213
72	0x3f5cddec	0.86276126
73	0x3e3bc520	0.18336916
74	0xbe33e695	-0.17568429
75	0x3ef08f1a	0.46984178
76	0xbe856bb9	-0.26058748
77	0x3ddc250c	0.10749254
78	0x3dabc2d9	0.083867736
79	0xbd40aca4	-0.047039643
80	0xbe924a98	-0.28572536
81	0xbd97f306	-0.074194
82	0xbdceb316	-0.10092752
83	0xbd22e6d2	-0.03977091
84	0xbe4f2811	-0.20230128
85	0x3ee3e909	0.4451373
86	0x3d852c87	0.065026335
87	0x3d7a9baf	0.061183628
88	0xbeb4e76c	-0.3533281
89	0x3e7c244d	0.24623223
90	0x3db2d791	0.08732522
91	0xbf4661ff	-0.7749328
92	0xbe287173	-0.16449527
93	0xbd18e72f	-0.03732985
94	0xbf71a363	-0.94389933
95	0xbcc8ff92	-0.024535928
96	0xbec04566	-0.37552947
97	0xbf126965	-0.5719207
98	0xbe0bc4b7	-0.1364926
99	0x3e892e9b	0.2679337
100	0xbdc08c10	-0.09401715
101	0x3e41aec7	0.18914329
102	0xbed89f67	-0.42309114
103	0x3e0b3ab6	0.13596615
104	0x3f03c50d	0.5147255
105	0xbdfb1b2d	-0.12261043
106	0x3d64d37c	0.05586575
107	0xbf3c5788	-0.7357106
108	0x3ddaed32	0.10689773
109	0x3e483b09	0.1955377
110	0x3ec6cc68	0.38827825
111	0xbeac5e09	-0.33665493
112	0xbebdcf57	-0.3707225
113	0x366ea2b0	3.555946e-06
114	0xbf096261	-0.5366574
115	0x3e189712	0.14901379
116	0x3edbcedf	0.42931268
117	0xbe4f53ee	-0.2024686
118	0x3e0199d5	0.12656339
119	0xbe5eed56	-0.21770224
120	0x3e124dba	0.14287463
121	0xbe7be0a9	-0.2459742
122	0xbe77c7ed	-0.2419736
123	0x3ec751fe	0.38929743
124	0xbee186f1	-0.44048265
125	0xbe34b641	-0.1764765
126	0xbea855c2	-0.32877928
127	0x3e417aa3	0.18894438
128	0xbe0be29f	-0.13660668
129	0xbda7e2b0	-0.08197534
130	0x3d836114	0.064150006
131	0xbe154330	-0.14576411
132	0x3d0fd49c	0.03511487
133	0x3ea73db2	0.32664257
134	0xbde717fb	-0.11283871
135	0x3d1650aa	0.03669802
136	0x3da4ba9a	0.08043404
137	0xbf250ddc	-0.6447427
138	0x3e17ed12	0.14836529
139	0x3e73420b	0.23755662
140	0xbeae22fa	-0.3401106
141	0x3e42a659	0.19008769
142	0xbf45c595	-0.7725461
143	0x3ebb6bc3	0.36605653
144	0x3e3ea2c7	0.18616782
145	0xbc4b126b	-0.012394528
146	0xbdaa4704	-0.083143264
147	0x3ccc73fe	0.024957653
148	0x3d2a5d85	0.041593093
149	0xbc7fdab2	-0.015616106
150	0xbf0b219c	-0.5434816
151	0xbf324703	-0.69639605
152	0x3db221ee	0.08697878
153	0xbe9a29b7	-0.3010995
154	0x3e01f3c9	0.12690653
155	0x3db9c732	0.090711966
156	0xbe7972ec	-0.24360245
157	0xbf33f39f	-0.7029361
158	0x3e462b1a	0.1935238
159	0x3ed10ed9	0.4083164
160	0xbf19e0b8	-0.6010852
161	0xbdc4db40	-0.09612131
162	0x3e348092	0.1762717
163	0xbe4ccc5c	-0.19999832
164	0xbd4828b1	-0.04886693
165	0xbd178c20	-0.036998868
166	0x3d6a5ea8	0.057219177
167	0xbf4413b8	-0.7659259
168	0xbf0d39ee	-0.5516652
169	0xbf0fcbcf	-0.5617036
170	0xbf3a1c0c	-0.72699046
171	0xbe9af559	-0.3026531
172	0xbde6aa92	-0.112630025
173	0x3e2a1fe4	0.16613728
174	0x3ed73311	0.42031148
175	0x3dc568a6	0.09639101
176	0xbd703797	-0.058646765
177	0x3d16d908	0.03682807
178	0x3de6e793	0.11274638
179	0xbf967afe	-1.1756284
180	0xbd9f552f	-0.07779919
181	0x3e1e27c9	0.15444864
182	0xbaf298ce	-0.0018508674
183	0xbeac35e8	-0.33634877
184	0xbe2235cc	-0.15840834
185	0x3f421372	0.7581092
186	0xbd63ba40	-0.055597544
187	0x3e781868	0.2422806
188	0xbf0eed99	-0.55831295
189	0x3dfb5a37	0.122730665
190	0x3ed20611	0.41020253
191	0x3e32b883	0.17453198
192	0xbe3f3154	-0.18671161
193	0xbdfa9223	-0.122349046
194	0xbd8deabf	-0.0692954
195	0x3e1964bc	0.14979833
196	0x3d21efde	0.039535396
197	0x3e335825	0.17514093
198	0xbe7c130a	-0.24616638
199	0x3bb0374c	0.0053776857
200	0x3e702c52	0.23454407
201	0xbdc2b7d0	-0.09507716
202	0xbf408a61	-0.7521115
203	0xbdc39877	-0.09550565
204	0x3e12be2b	0.14330356
205	0x3eb22cf9	0.34799936
206	0xbe8ccb8b	-0.2749904
207	0xbf9cf3ca	-1.2261899
208	0xbef4bb14	-0.4779898
209	0xbe03599f	-0.12827156
210	0x3eeb189f	0.45917222
211	0x3e422b9a	0.18961945
212	0xbe14395d	-0.14475007
213	0xbe00d60f	-0.12581657
214	0xbec0dd8c	-0.37669027
215	0xbb99b88a	-0.004691188
216	0x3c94ee7f	0.01818013
217	0xbf012e62	-0.504614
218	0x3e2f6aeb	0.1713063
219	0xbe542b3b	-0.20719616
220	0xbcdda0fe	-0.027054306
221	0xbe085a04	-0.13315588
222	0xbf2e4642	-0.68075955
223	0xbf0b8869	-0.5450502
224	0x3df5debb	0.12005373
225	0x3ce0be99	0.027434634
226	0xbea49a1f	-0.32148835
227	0xbbf9896f	-0.0076152603
228	0x3d86719d	0.06564639
229	0x3e93fa39	0.28901842
230	0x3c4c030e	0.0124519
231	0x3dbac01e	0.09118675
232	0x3ec01fcc	0.3752426
233	0xbe266b72	-0.16251925
234	0xbf2d3cba	-0.67670786
235	0x3e7886d6	0.24270186
236	0x3e7440a6	0.23852786
237	0xbe9ad545	-0.30240837
238	0xbf18b370	-0.596488
239	0xbf39e0a1	-0.7260838
240	0xbf021396	-0.50811136
241	0xbd7ac2b2	-0.061220832
242	0xbda03f73	-0.07824602
243	0x3b9afc14	0.004729757
244	0xbdf76884	-0.12080482
245	0x3e168455	0.14698918
246	0xbe09f0c0	-0.13470745
247	0xbe1e7e01	-0.15477754
248	0x3eb4bf6d	0.35302296
249	0xbd922528	-0.07135993
250	0xbf1c32e1	-0.61015135
251	0x3e172004	0.14758307
252	0x3e11477a	0.14187422
253	0x3d6cc5a5	0.057805676
254	0x3eb12f4e	0.34606403
255	0x3ec2a139	0.38013628

fc1.bias f4 [10]
0	0xbe313000	-0.17303467
1	0x3e0167fb	0.12637322
2	0xbed69678	-0.41911674
3	0xbed8e085	-0.42358795
4	0xbe621e97	-0.22081982
5	0x3e4be6e3	0.19912295
6	0xbd7a5fa9	-0.061126385
7	0x3e892f9c	0.26794136
8	0x3ef45506	0.47721118
9	0x3c112c86	0.008860713
