weights/SpO2/lr_model/float/lc_model_scaled_hypnogram_1000epoch.pt (torch, 2583 bytes, 1 tensors)

linear.weight f4 [1, 300]
0	0xbedbd312	-0.4293447
1	0x3f274a25	0.6534751
2	0xbd034a6e	-0.032053404
3	0xbf1517bf	-0.5823936
4	0xbf938fd4	-1.1528268
5	0x3fb6b8a1	1.4275094
6	0x3e099f74	0.13439733
7	0x3f22c5d2	0.635831
8	0xbf5a47d7	-0.8526587
9	0x3deb8cfe	0.115015015
10	0x3e932af0	0.28743696
11	0xbe77eb15	-0.2421077
12	0x3e4b8b57	0.19877373
13	0xbfd1afbd	-1.6381756
14	0x3f66cd0c	0.90156627
15	0xbe3356ad	-0.17513533
16	0x3d55444b	0.052067082
17	0x3fb217b5	1.3913485
18	0xbea73d94	-0.32664168
19	0x3ed5540a	0.4166568
20	0xbf99115b	-1.1958421
21	0x3e0278b7	0.12741362
22	0x3efc007e	0.49219126
23	0xbef031bf	-0.46912953
24	0xbe8e2a93	-0.27766857
25	0x3e8500e0	0.2597723
26	0xbf3d1be1	-0.73870665
27	0x3f57a1dd	0.8423136
28	0xbd9a7c3b	-0.07543226
29	0x3e898c64	0.26864922
30	0xbf19a684	-0.6001971
31	0x3f2c2f1d	0.6725939
32	0x3eb45f3f	0.35228917
33	0xbefac32b	-0.48977026
34	0xbea690c0	-0.3253231
35	0xbf08c31f	-0.5342273
36	0x3e50b7f8	0.20382679
37	0x3f0578ba	0.5213734
38	0xbf0e83f0	-0.5567007
39	0x3ee8c428	0.45462155
40	0x3e18b6df	0.1491351
41	0xbf7e5a77	-0.9935679
42	0x3ef5be5e	0.479968
43	0xbefe34e1	-0.49649718
44	0xbf50a2f3	-0.8149864
45	0x3fb3cf0e	1.4047563
46	0xbe1bfdb9	-0.15233506
47	0x3f083acb	0.5321471
48	0xbfbdddbc	-1.4833293
49	0xbdeee281	-0.11664296
50	0x3e474a14	0.19461852
51	0xbdc7b585	-0.09751419
52	0x3f26264a	0.64902174
53	0x3e252dde	0.16130778
54	0xbecf9bc3	-0.40548524
55	0x3f5e3f02	0.8681489
56	0xbd2ab3a8	-0.04167524
57	0xbf121ceb	-0.57075375
58	0xbe55e7d9	-0.20889224
59	0xbde6d1a0	-0.112704515
60	0x3d9d5e35	0.07683984
61	0xbecc2861	-0.39874557
62	0xbe90d976	-0.2829091
63	0x3f121390	0.570611
64	0xbdc91c26	-0.09819822
65	0x3fa9d167	1.326703
66	0xbea016f9	-0.31267527
67	0xbf92b30c	-1.1460891
68	0x3ddaa28b	0.10675534
69	0x3e81e55e	0.25370306
70	0xbf10888e	-0.56458366
71	0x3e65cb5d	0.22440858
72	0xbf2ad067	-0.66724247
73	0x3f4e12bb	0.8049733
74	0xbfbcc6fd	-1.4748226
75	0x3e73b5b0	0.23799777
76	0xbd291a47	-0.041284826
77	0x3f92e46a	1.1475956
78	0xbf95e052	-1.1709082
79	0x3f33ed5e	0.7028407
80	0xbeb00627	-0.34379694
81	0x3db41ab6	0.08794157
82	0xbd008512	-0.031376906
83	0x3f25b2a1	0.6472569
84	0xbe6f722b	-0.23383395
85	0xbd841eef	-0.064512126
86	0xbd861cb0	-0.065484405
87	0xbf7208ac	-0.9454448
88	0x3e5a3842	0.21310523
89	0x3f7bc9fd	0.98355085
90	0xbccb5123	-0.024818962
91	0xbf56465a	-0.837011
92	0xbec2240b	-0.37918124
93	0x3e4b9f10	0.19884896
94	0x3f4d6fed	0.8024891
95	0xbf26c5f5	-0.6514581
96	0xbf5c302f	-0.8601102
97	0x3f8ea92f	1.1145381
98	0xbe2807dc	-0.16409248
99	0xbf38c8d8	-0.72181463
100	0xbe018912	-0.12649944
101	0x3f2be6df	0.67149156
102	0xbf2c6c2a	-0.67352545
103	0x3f6e4129	0.93068177
104	0x3eae8430	0.34085226
105	0xbef6ccb2	-0.48203045
106	0x3e52cbc9	0.2058555
107	0xbe00b8fe	-0.12570569
108	0x3e52f41c	0.20600933
109	0x3eafb1f0	0.34315443
110	0xbf4bf918	-0.7967696
111	0xbe84ad9b	-0.259137
112	0xbef884dd	-0.48538867
113	0x3f648639	0.8926731
114	0xbd584294	-0.05279787
115	0xbf0a0f23	-0.53929347
116	0xbda056c6	-0.07829051
117	0xbec5aa9e	-0.38606733
118	0x3f208825	0.6270774
119	0x3ec58055	0.38574472
120	0xbfb03e67	-1.3769044
121	0x3e980e9c	0.29698646
122	0x3f8a0a37	1.0784367
123	0xbf001c3f	-0.500431
124	0x3f2f64a3	0.68512934
125	0xbf4fb0b2	-0.8112899
126	0xbf68c269	-0.90921646
127	0xbc69aec8	-0.0142628625
128	0x3e8ec0e7	0.27881548
129	0xbe5ba41b	-0.2144932
130	0x3e91d480	0.28482437
131	0xbbde8726	-0.0067910133
132	0xbea3a62b	-0.31962714
133	0x3ecafe4f	0.39647147
134	0xbf232de2	-0.63741887
135	0x3f0f5f03	0.5600435
136	0x3d863e95	0.06554905
137	0x3e76f670	0.24117446
138	0x3d92bed5	0.071653046
139	0x3c9eef17	0.019401116
140	0xbf2521f0	-0.6450491
141	0x3e161646	0.14656934
142	0x3e3258f0	0.1741674
143	0xbeb825c7	-0.35966322
144	0xbf477c54	-0.77924085
145	0x3f760e06	0.9611515
146	0xbf17c96f	-0.5929174
147	0x3deb3965	0.114855565
148	0x3f9bb900	1.2165833
149	0x3e79efea	0.24407926
150	0xbf9e70b4	-1.2378144
151	0xbf38b176	-0.72145784
152	0xbf156272	-0.5835334
153	0x3f961a58	1.172679
154	0xbf1083a6	-0.5645088
155	0xbe151f50	-0.14562726
156	0x3ec4b188	0.38416696
157	0x3e37ba2b	0.17942111
158	0xbf31b849	-0.6942182
159	0xbf3dcc41	-0.7413979
160	0x3fa07578	1.2535849
161	0x3e28df34	0.16491395
162	0x3f6bd8d3	0.9212772
163	0xbf2b9d95	-0.67037326
164	0xbf0af310	-0.54277134
165	0xbe3e76fe	-0.1860008
166	0x3f0ff24e	0.562291
167	0xbe8b8033	-0.27246246
168	0xbecaa9ce	-0.39582676
169	0x3f65f989	0.89833885
170	0xbed4d379	-0.4156759
171	0xbf823d09	-1.0174876
172	0x3f86a630	1.0519466
173	0xbe582efa	-0.2111167
174	0xbed526b5	-0.41631094
175	0x3cd20af6	0.025639992
176	0xbed6d2f8	-0.4195783
177	0x3f480cdf	0.7814464
178	0xbd4fbcc0	-0.050717115
179	0xbf274357	-0.6533713
180	0x3f412f1e	0.7546252
181	0xbf06c054	-0.5263722
182	0xbf031449	-0.5120283
183	0xbe117f6c	-0.14208764
184	0x3effee00	0.49986267
185	0x3e71e019	0.23620643
186	0x3eb575c2	0.35441405
187	0x3dc81d82	0.09771253
188	0xbed5fe0d	-0.41795388
189	0xbf345715	-0.70445377
190	0xbe7aa22c	-0.24475926
191	0xbf141361	-0.5784207
192	0x3ecff59d	0.40617076
193	0x3f859217	1.0435208
194	0xbed296b6	-0.41130608
195	0xbe62f169	-0.22162403
196	0x3f34593d	0.70448667
197	0xbde8d154	-0.11368051
198	0xbf56963b	-0.83822984
199	0xbd2cf5b6	-0.042226516
200	0x3e896bfa	0.26840192
201	0xbf6840f9	-0.9072414
202	0xbdc82001	-0.09771729
203	0x3dddca9b	0.108296596
204	0x3eaa0213	0.33204708
205	0x3ea18fd5	0.31555048
206	0x3d542d0f	0.051800784
207	0x3ee0b9dc	0.438918
208	0xbdc84baf	-0.097800605
209	0xbf298799	-0.6622253
210	0xbe3ffa50	-0.1874783
211	0xbdebaac1	-0.11507178
212	0x3ea5f1fa	0.32411176
213	0xbea02872	-0.31280857
214	0xbf4d39d3	-0.8016636
215	0x3f9c5be5	1.2215544
216	0x3e2aa819	0.16665687
217	0xbf27efb0	-0.6560011
218	0x3eaa5f3a	0.33275777
219	0x3ec66173	0.38746223
220	0xbe675dc3	-0.22594361
221	0xbeab4709	-0.33452633
222	0x3dace0a2	0.08441283
223	0xbefadbe8	-0.489959
224	0xbf5f855e	-0.8731288
225	0xbdd010b3	-0.10159435
226	0x3e8ddc53	0.27707157
227	0x3facbb1c	1.3494601
228	0xbea4bad8	-0.321738
229	0xbe90d9a3	-0.28291044
230	0xbb367a4d	-0.0027843893
231	0xbf58aab0	-0.8463545
232	0x3e3015f3	0.17195873
233	0x3e87fba3	0.2655917
234	0xbd91c4ae	-0.07117592
235	0xbdeece27	-0.11660414
236	0xbf4e7836	-0.8065218
237	0x3e504d30	0.20341945
238	0x3ee640d9	0.4497135
239	0x3ebef912	0.372994
240	0xbf089410	-0.53350925
241	0xbf09fe78	-0.53903913
242	0x3eed28ed	0.46320286
243	0x3ec912d0	0.39272165
244	0xbfb8902a	-1.4418995
245	0x3f4d1969	0.801169
246	0x3dceb7d4	0.10093656
247	0xbe379fc0	-0.17932034
248	0xbe8f4c53	-0.27987918
249	0x3e63a065	0.22229154
250	0x3e1c28ae	0.15249893
251	0x3e16baa1	0.14719631
252	0xbf2b53e8	-0.66924906
253	0x3eac9ef9	0.33715037
254	0xbefe1c9c	-0.49631202
255	0x3e2b17fa	0.16708365
