weights/SpO2/1fc/float/lc_model_scaled_hypnogram_500epoch.pt (torch, 2543 bytes, 1 tensors)

linear.weight f4 [1, 300]
000000 1b a1 dc be e7 8c 21 3f cd 71 87 bc b8 a0 10 bf
       -0.43091664 0.63105625 -0.016533757 -0.5649524
000010 80 6c 8c bf e9 38 ad 3f ca e2 13 3e 54 b5 1d 3f
       -1.0970612 1.3532993 0.14441982 0.6160481
000020 14 45 52 bf 98 8f cf 3d a6 db 99 3e 25 e4 7e be
       -0.82136655 0.1013481 0.3005039 -0.24891718
000030 92 32 14 3e c9 05 c6 bf 5e ad 58 3f 04 51 26 be
       0.14472416 -1.5470515 0.8463954 -0.16241843
000040 41 6d a7 3d 05 b0 a9 3f 35 4c 8b be ef 7c bc 3e
       0.081751354 1.3256842 -0.2720658 0.36814067
000050 4b a1 93 bf 2d f8 ee 3d eb 56 f1 3e 68 77 e3 be
       -1.1533598 0.116684295 0.47136626 -0.44427037
000060 82 1b 89 be 9c 51 7f 3e 66 8b 38 bf bf 7b 4c 3f
       -0.267788 0.24933475 -0.72087705 0.7987632
000070 5b 9b 4a bd de 84 83 3e df ea 0e bf e0 fb 26 3f
       -0.049464565 0.25687307 -0.55827135 0.6522808
000080 01 11 a7 3e e9 1a f4 be b3 f4 a6 be df 51 01 bf
       0.3263016 -0.4767678 -0.32608566 -0.5051555
000090 a1 6f 2e 3e be fd ff 3e 1e 29 01 bf 48 2a da 3e
       0.1703477 0.49998277 -0.50453365 0.42610383
0000a0 ee 5e 05 3e 0d 5a 72 bf 9c 9f e1 3e d0 be f5 be
       0.13024494 -0.94668657 0.44067085 -0.4799714
0000b0 c8 56 43 bf ee 66 aa 3f 0b c9 fe bd 70 7a fd 3e
       -0.7630429 1.3312662 -0.1244069 0.49507475
0000c0 25 6e b7 bf 8d 91 02 be 22 2d 36 3e fd 54 90 bd
       -1.4330488 -0.12750836 0.17790654 -0.0704746
0000d0 84 fc 1f 3f 24 b7 1f 3e 0e 8a b9 be d8 26 51 3f
       0.62494683 0.15597206 -0.3623814 0.81699896
0000e0 7b 24 17 bd 00 1d 0d bf 06 18 58 be 7d e1 02 be
       -0.036900025 -0.55122375 -0.21102914 -0.1278133
0000f0 98 0d ad 3d 4b 34 c3 be 31 8c 8b be d3 22 0c 3f
       0.084498584 -0.38125834 -0.27255395 0.5474064
000100 ec 21 8e bd 6e ff a0 3f 9b 0a 91 be 48 3b 8b bf
       -0.06940064 1.2577951 -0.28328404 -1.0877466
000110 4b e9 81 3d b2 cb 66 3e bf 37 07 bf b8 cf 59 3e
       0.06343325 0.22538641 -0.52819437 0.21270645
000120 80 5b 20 bf af 7a 39 3f e0 f3 b1 bf 8c 6e 46 3e
       -0.6263962 0.72452825 -1.390255 0.19378108
000130 64 7c 5a bc 91 e8 89 3f 90 ec 8c bf 0b 28 26 3f
       -0.013335321 1.0774099 -1.1009693 0.6490485
000140 7e ea 99 be bd 39 b3 3d 47 2e af bc a4 f6 1a 3f
       -0.30061716 0.08751247 -0.021384371 0.60532594
000150 c7 32 54 be 33 8f 67 bd 1a d7 be bd 7c 7f 6d bf
       -0.20722495 -0.05653305 -0.09318371 -0.9277265
000160 20 e1 60 3e ba 14 75 3f d8 5b 96 bc 5b 18 4f bf
       0.21960878 0.9573475 -0.018354341 -0.8089654
000170 a2 20 cb be 6d f4 4e 3e a8 49 45 3f 07 78 1e bf
       -0.39673334 0.20210429 0.77065516 -0.619019
000180 8d a2 51 bf 59 54 87 3f 86 25 29 be e7 01 31 bf
       -0.8188866 1.0572616 -0.1651822 -0.6914353
000190 0f 54 f0 bd 0c 21 1e 3f 2c e4 21 bf 58 12 65 3f
       -0.11734783 0.61769176 -0.6323879 0.89481115
0001a0 a5 e5 a9 3e dd 4f de be 5c 58 4f 3e 3b d2 fc bd
       0.33183017 -0.43420306 0.2024855 -0.12344786
0001b0 c6 0d 42 3e 3b 10 a5 3e 40 7b 43 bf 09 0e 89 be
       0.18950567 0.32238945 -0.7635994 -0.2676852
0001c0 d9 99 ee be 4c e8 5a 3f 10 79 2a bd 57 d5 03 bf
       -0.4660175 0.85510707 -0.04161936 -0.51497406
0001d0 e5 ab b4 bd cc 03 c4 be 20 82 1c 3f 70 ea b9 3e
       -0.08821849 -0.38284147 0.61136055 0.36311674
0001e0 b6 aa a9 bf 9a 2c 94 3e 67 81 83 3f c1 01 e6 be
       -1.3255222 0.28940278 1.0273865 -0.44923213
0001f0 d2 1c 25 3f 54 71 46 bf 0d 5e 66 bf 07 c7 06 bd
       0.644971 -0.77516675 -0.8998726 -0.03290465
000200 b0 c0 84 3e fa 91 45 be 8f 0b 8f 3e 9c 97 26 bc
       0.2592826 -0.19293967 0.27938506 -0.010167982
000210 5d 16 9c be 3d 1d ba 3e 28 14 15 bf f7 95 05 3f
       -0.30485812 0.36350432 -0.5823388 0.52181953
000220 b1 b9 a0 3d 64 71 7b 3e 7f 34 7f 3d e7 3e 7d 3b
       0.07847918 0.24554974 0.062305924 0.003864223
000230 26 13 1d bf 44 d2 10 3e ab d5 21 3e 56 d5 b9 be
       -0.61357343 0.1414271 0.15804164 -0.36295575
000240 b1 6c 40 bf 12 01 69 3f 5c 83 0b bf 10 57 e8 3d
       -0.7516585 0.9101726 -0.54497313 0.11344731
000250 19 9c 96 3f 04 ac 75 3e fc 6e 99 bf 40 0d 37 bf
       1.1766387 0.239914 -1.1986995 -0.7150459
000260 3b b2 11 bf 49 8f 8e 3f a6 83 03 bf 20 30 1d be
       -0.56912583 1.1137477 -0.51372755 -0.1535039
000270 e4 9e b8 3e 57 d8 1d 3e 20 62 2a bf 5f d7 33 bf
       0.36058724 0.15414558 -0.66555977 -0.70250505
000280 55 70 99 3f b9 b2 4e 3e f3 7b 60 3f ec 3f 24 bf
       1.1987406 0.20185365 0.8768913 -0.6416004
000290 36 89 09 bf ad 2d 38 be 9a c0 07 3f 53 a1 86 be
       -0.5372499 -0.17986174 0.5302826 -0.26294956
0002a0 22 1f b9 be 13 b7 59 3f de b1 c8 be a1 c3 7a bf
       -0.36156565 0.85044974 -0.39198202 -0.97954756
0002b0 9b 8c 7c 3f 87 b7 46 be cf 62 d1 be d8 50 81 3c
       0.98652047 -0.19405948 -0.40895697 0.01578562
0002c0 1b f9 c6 be 6b ad 3d 3f 1f de 6b bd dd 2b 1e bf
       -0.38861927 0.7409274 -0.057584878 -0.6178568
0002d0 5c 29 37 3f 97 3b 01 bf 82 a2 01 bf 28 99 04 be
       0.71547484 -0.5048155 -0.5063859 -0.1294905
0002e0 38 46 fd 3e 8c 7b 73 3e 44 48 a4 3e 71 c5 ac 3d
       0.49467635 0.23777598 0.32086384 0.084360965
0002f0 d6 e5 c9 be 49 06 2d bf db 31 85 be e6 4f 0c bf
       -0.39433163 -0.67587715 -0.260146 -0.54809415
000300 08 33 c4 3e 2f c7 81 3f ee 2a c3 be 29 df 50 be
       0.38320184 1.0138911 -0.3811869 -0.20397629
000310 c6 28 2a 3f 20 75 f8 bd 1d bb 4f bf 8f be 44 bd
       0.66468465 -0.12131715 -0.8114489 -0.048033293
000320 1e 29 73 3e 34 30 5d bf 95 f6 f1 bd 66 57 e1 3d
       0.23746154 -0.8640168 -0.1181461 0.11002998
000330 32 26 b4 3e f7 85 9d 3e a9 d7 72 3d cc d6 d4 3e
       0.3518539 0.3076627 0.0592877 0.41570127
000340 9c 13 d4 bd c8 c1 23 bf 8c 05 42 be e1 02 e2 bd
       -0.10355303 -0.6396756 -0.18947428 -0.11035705
000350 75 64 99 3e 79 ba 96 be be 61 42 bf 1c 40 93 3f
       0.29959455 -0.29439142 -0.7593039 1.150394
000360 4b a3 30 3e 69 d7 1f bf a7 55 a3 3e 99 49 bd 3e
       0.17249791 -0.62438065 0.31901285 0.36970213
000370 75 3a 58 be f3 0e a6 be 77 5a 95 3d c1 d5 fc be
       -0.2111605 -0.3243328 0.072926454 -0.4938183
000380 3f 46 59 bf 66 fe c6 bd a2 bb 92 3e 89 85 a4 3f
       -0.8487281 -0.097164914 0.28658777 1.2853252
000390 72 f0 91 be 46 06 8c be 6f 72 a2 bc 98 5a 4e bf
       -0.28503758 -0.27348536 -0.019829957 -0.80606985
0003a0 e4 d8 15 3e 37 26 70 3e c3 e4 60 bd bc ef 08 be
       0.14633518 0.23452078 -0.054905664 -0.13372701
0003b0 d4 d9 41 bf 26 c3 48 3e 9e ac de 3e df 16 be 3e
       -0.75723004 0.19605693 0.4349107 0.37126824
0003c0 b6 eb 09 bf 15 49 07 bf fb fc de 3e 11 d7 b7 3e
       -0.5387529 -0.5284589 0.43552384 0.3590627
0003d0 e0 9f ad bf ea 8a 41 3f 50 6b e8 3d b5 75 2a be
       -1.3564415 0.7560259 0.11348593 -0.16646464
0003e0 17 57 91 be 53 ee 63 3e e9 7d 0b 3e 36 0c 0d 3e
       -0.28386757 0.22258882 0.1362225 0.1377419
0003f0 bc dc 23 bf c1 82 a2 3e 21 25 f7 be 65 1e 11 3e
       -0.6400869 0.31740382 -0.48270515 0.14171751
