weights/ecg_float/lr_model_epoch500_lr1e-3.pt (torch, 1653 bytes, 1 tensors)

linear.weight f4 [1, 128]
000000 1a 0d 35 bf 14 39 6d 3e cf 4f 8a bf 40 34 97 bf
       -0.70723116 0.23166305 -1.0805606 -1.181282
000010 e6 a8 9e bf 68 1f 81 bf a8 22 4e bf da a7 da be
       -1.2395294 -1.008771 -0.8052163 -0.42706186
000020 e3 1e 14 be cd 2c 89 3e 4d 01 1b 3f 69 be 82 3f
       -0.14464907 0.26791993 0.6054886 1.0214359
000030 06 c6 a3 3f f6 6e b1 3f 78 1e b2 3f cb 1e b6 3f
       1.2794807 1.3861988 1.3915548 1.4228147
000040 f2 9c b2 3f 80 df a3 3f ba 14 85 3f 26 49 7c 3f
       1.3954146 1.2802582 1.039695 0.98549116
000050 fa d7 82 3f fc 75 87 3f 25 d9 80 3f 98 85 9b 3f
       1.0222161 1.0582881 1.0066267 1.2150145
000060 88 cb a4 3f e4 f8 b3 3f 33 cb c3 3f fb 7d ba 3f
       1.2874613 1.406033 1.5296386 1.4569696
000070 99 d1 b9 3f 3a 7d 8f 3f 00 ab 1c 3f 4b 54 80 3e
       1.4517089 1.1210091 0.61198425 0.2506431
000080 2b fe e2 be 7d d5 92 bf 88 0c fe bf 6f 8a 3a c0
       -0.4433454 -1.1471401 -1.9847574 -2.9146993
000090 2d a2 6f c0 d5 d2 86 c0 b3 90 94 c0 fb 5e 9a c0
       -3.7442734 -4.2132363 -4.6426635 -4.8240943
0000a0 e2 8c 9d c0 c9 f9 a1 c0 42 b6 9d c0 6b 9d 97 c0
       -4.9234476 -5.0617414 -4.9284983 -4.737966
0000b0 b9 42 81 c0 58 b9 25 c0 8f c0 3e bf da 8a 90 3f
       -4.039395 -2.5894375 -0.7451257 1.1292374
0000c0 f8 24 2f 40 77 7b 6f 40 be ef 8f 40 57 3c 9b 40
       2.7366314 3.7419107 4.4980154 4.8511157
0000d0 e5 4d ab 40 83 d3 f3 40 ce 40 18 41 39 d1 14 41
       5.3532586 7.6195693 9.515821 9.30108
0000e0 fb be f6 40 e1 c3 35 40 5d 61 cf bf f2 31 da bf
       7.710813 2.8400805 -1.6201588 -1.7046492
0000f0 26 1c ba bf 05 c3 9d c0 98 e4 e3 c0 65 e8 25 c0
       -1.453984 -4.930056 -7.1216545 -2.5923092
000100 77 62 b5 3f 4c 8a 9e 40 70 f7 00 40 4b 14 61 c0
       1.4170674 4.954382 2.0151024 -3.5168636
000110 34 02 f3 c0 ef 2c 7a 40 6c c4 99 41 57 09 07 41
       -7.594019 3.9089925 19.22091 8.43978
000120 27 e7 c8 c0 d2 28 fe c0 c9 5b c9 c0 8f 9b 63 c0
       -6.278217 -7.942483 -6.2924542 -3.5563695
000130 9c 11 1d bf c0 a0 91 3e 7d d5 ba 3e 18 aa 80 bf
       -0.61354995 0.28442955 0.36491004 -1.0051908
000140 fd d8 32 c0 26 77 81 c0 02 ed a6 c0 fa 65 c8 c0
       -2.794494 -4.0457945 -5.2164316 -6.2624483
000150 68 4d c5 c0 44 1d 86 c0 0f b2 c3 bf b5 34 89 3f
       -6.165699 -4.1910725 -1.5288714 1.071921
000160 10 35 56 40 a0 9d 74 40 8f 18 75 40 22 d7 6b 40
       3.3469887 3.8221207 3.829624 3.6850057
000170 fb 47 5b 40 2d ee 51 40 75 f5 3b 40 61 03 1b 40
       3.4262683 3.280162 2.9368565 2.4220812
000180 2b 8d eb 3f eb 4e 8a 3f 6b 39 59 3e 03 29 2d bf
       1.8402456 1.0805334 0.2121331 -0.67640704
000190 2c dd a2 bf 2e f3 b6 bf bf 51 b6 bf 00 0a a2 bf
       -1.2723746 -1.4292963 -1.4243697 -1.2659302
0001a0 36 05 96 bf 77 5a 7d bf 7d 4c 6f bf cb 79 39 bf
       -1.172034 -0.98966163 -0.93476087 -0.72451466
0001b0 50 69 eb be 3e 94 ba be 4a b0 b0 be 78 94 aa bd
       -0.45978785 -0.36441225 -0.34509498 -0.083290994
0001c0 63 02 de 3b 94 7e 69 3e da 76 85 3e cc 3d 2e 3e
       0.006775187 0.22802192 0.2606724 0.17015761
0001d0 a9 79 6a 3e 54 cc 98 3e 1d 31 b4 3e 5f 64 a4 3e
       0.22897972 0.2984339 0.3519372 0.32107827
0001e0 48 77 68 3e 33 3e 80 3c e3 f2 81 be 3b d6 f4 be
       0.22701752 0.015654659 -0.2538062 -0.47819695
0001f0 98 f2 63 bf 48 10 7b bf 46 9c 79 bf 75 c4 86 bf
       -0.89042044 -0.9807172 -0.9750408 -1.0528704
